best_flow_ffnn.pth (torch, 18829 bytes, 14 tensors)

net.0.weight f4 [64, 10]
0.24951155 0.113824695 0.011318433 0.19984636 -0.26593164 0.1965115 -0.13068649 -0.14499639
0.021979216 0.017541548 -0.049621157 -0.1032413 0.054793876 -0.23677434 0.095858045 -0.020333689
-0.1009269 0.0984013 0.2895942 -0.010542017 0.111777 -0.007175894 0.10924424 0.15439397
-0.27330354 -0.23482947 0.072524965 0.102735996 -0.25092942 -0.14541303 0.19807 -0.0008715098
0.21729118 0.3013041 -0.27727553 0.15439223 0.2178699 -0.117676884 0.2769217 0.07159911
0.19887035 -0.039336838 0.17228144 0.24477689 0.25280598 0.29755932 0.26828557 0.015356836
0.025035987 0.22266029 0.2744856 -0.111895904 0.16767818 0.27086857 -0.3061481 0.2355381
-0.23835386 -0.3133204 -0.3102336 -0.085704125 -0.21464299 0.07438967 0.25916204 0.2496618
0.2679697 0.09171663 0.24925819 -0.032848552 0.22872804 -0.055853628 0.087211855 -0.2925761
-0.075076416 0.1255816 -0.1997759 -0.2996381 -0.038434 0.18770115 0.083147414 0.042117517
-0.31090513 0.31097057 -0.14466959 0.30579224 0.104532115 -0.18273294 0.11920003 0.29903397
0.169454 0.016239451 0.045534123 -0.31562683 0.06719955 0.24506748 0.12251275 0.068708815
-0.16431695 -0.24220031 0.3094198 0.007158908 -0.028524864 -0.1962179 -0.059065808 -0.2670321
0.23193072 0.020386849 0.03049784 0.19989805 -0.12284856 0.20858721 -0.09608118 -0.029381689
0.24628368 0.23663546 -0.15329213 0.20757277 0.23093154 0.25271353 0.039498523 -0.2808544
-0.21452698 -0.24737677 0.04095818 -0.21502584 -0.055325367 0.07988345 -0.24366306 -0.05447624
-0.2306112 0.2672796 -0.28310767 -0.3074559 -0.28924543 0.25585753 0.019860212 0.11386479
-0.16340122 0.1202739 -0.30094436 0.21602088 -0.22576591 -0.04245979 0.25248915 -0.064509995
0.033703856 -0.18321131 0.06476632 0.11316164 -0.24387862 0.19532734 0.09151212 -0.21553005
-0.28302386 -0.20307931 -0.0018722438 0.25014025 -0.15940279 -0.082769364 -0.31617913 0.30361706
0.124453366 -0.2834717 -0.17141756 -0.062645964 -0.12750468 0.23112653 -0.094079316 0.14222607
0.25001597 0.059756868 0.1618117 0.0052740467 0.22786438 -0.2563481 -0.24185304 0.094513535
0.09953978 0.07761148 -0.01656953 -0.01113706 0.0772413 0.2567508 -0.03103583 -0.07560638
-0.2888848 0.10024749 0.3078315 0.17747545 -0.17112105 0.1991168 -0.25688416 -0.0555109
0.1765803 0.15518765 -0.07154001 -0.29816666 0.07126866 0.18175283 -0.20117277 0.25579
0.038380317 0.14951389 -0.26404563 -0.06423354 -0.033073112 -0.24295436 -0.07980752 0.15186578
-0.0039452217 -0.04070037 -0.045524098 -0.011802976 0.2476942 -0.23093346 -0.23678833 -0.26958346
-0.18184794 -0.000527833 0.025309041 0.3039021 -0.08229683 0.110418804 0.22554372 0.080543704
0.08288215 -0.23049833 0.29976898 0.12870169 -0.1362247 0.12404969 -0.0018548928 0.103198126
-0.2688318 -0.21705936 0.013742753 -0.19968288 0.19829267 -0.18887275 -0.09445934 0.20972066
0.11255062 -0.14350666 0.008927367 -0.24299061 0.31407645 -0.07465475 -0.07590821 0.27328706
-0.07319363 0.16470881 0.20832318 0.13251407 -0.26678267 -0.19094014 0.10225317 0.24710694
00000000: f57f 7f3e ec1c e93d f370 393c 86a4 4c3e
00000010: 3128 88be 503a 493e aed2 05be ef79 14be
00000020: c20d b43c 4bb3 8f3c 8e3f 4bbd 2d70 d3bd
00000030: 8b6f 603d f974 72be 3951 c43d d692 a6bc
00000040: c3b2 cebd 9f86 c93d b145 943e 6db8 2cbc
00000050: 57eb e43d c323 ebbb 72bb df3d 7419 1e3e
00000060: 71ee 8bbe 2377 70be f887 943d 4067 d23d
00000070: d279 80be 27e7 14be ddd2 4a3e 0876 64ba
00000080: 9481 5e3e 8844 9a3e 0ff7 8dbe ff18 1e3e
00000090: 4919 5f3e 9400 f1bd aec8 8d3e 8ea2 923d
000000a0: aba4 4b3e aa1f 21bd 8c6a 303e cba6 7a3e
000000b0: c96f 813e b259 983e ba5c 893e 3d9b 7b3c
000000c0: 4518 cd3c 0f01 643e 6089 8c3e ae29 e5bd
000000d0: d4b3 2b3e 49af 8a3e 72bf 9cbe e630 713e
000000e0: 0913 74be 886b a0be f0d6 9ebe a585 afbd
000000f0: 5fcb 5bbe 9c59 983d e3b0 843e 58a7 7f3e
00000100: 5333 893e eed5 bb3d 8a3d 7f3e 348c 06bd
00000110: af37 6a3e c6c6 64bd 219c b23d 89cc 95be
00000120: aac1 99bd 7798 003e 0e92 4cbe 2a6a 99be
00000130: f86c 1dbd bb34 403e 3149 aa3d 6b83 2c3d
00000140: f52e 9fbe 8937 9f3e 4424 14be cd90 9c3e
00000150: ef14 d63d 581e 3bbe 251f f43d fb1a 993e
00000160: 5985 2d3e 9908 853c fd81 3a3d d799 a1be
00000170: eb9f 893d f8f2 7a3e f7e7 fa3d 35b7 8c3d
00000180: b442 28be 5c03 78be 466c 9e3e 4695 ea3b
00000190: faac e9bc 58ed 48be fdee 71bd 6eb8 88be
000001a0: 3f7f 6d3e 5202 a73c 9bd6 f93c 13b2 4c3e
000001b0: 0798 fbbd e397 553e 36c6 c4bd deb1 f0bc
000001c0: ca31 7c3e 9150 723e 9df8 1cbe f58d 543e
000001d0: 5179 6c3e ab63 813e 34c9 213d 26cc 8fbe
000001e0: f6ac 5bbe 5650 7dbe c4c3 273d bc2f 5cbe
000001f0: da9c 62bd ef99 a33d cf82 79be 7a22 5fbd
00000200: 5825 6cbe dfd8 883e 7df3 90be dc6a 9dbe
00000210: fa17 94be c2ff 823e e2b1 a23c f131 e93d
00000220: a652 27be 2a52 f63d 6115 9abe 9434 5d3e
00000230: 2e2f 67be 51ea 2dbd 4246 813e d11d 84bd
00000240: 0e0d 0a3d bf9b 3bbe 34a4 843d 4ac1 e73d
00000250: 51bb 79be e403 483e b56a bb3d e9b3 5cbe
00000260: 81e8 90be 06f4 4fbe 1466 f5ba 6212 803e
00000270: 7c3a 23be fc82 a9bd 3be2 a1be b273 9b3e
00000280: 68e1 fe3d 3423 91be 1688 2fbe 874c 80bd
00000290: 9690 02be 6fac 6c3e a8ac c0bd b6a3 113e
000002a0: 1802 803e 9ec3 743d f7b1 253e e9d1 ac3b
000002b0: 4855 693e 0f40 83be 53a8 77be 5090 c13d
000002c0: 83db cb3d c5f2 9e3d d3bc 87bc 3778 36bc
000002d0: b030 9e3d d774 833e da3e febc 85d7 9abd
000002e0: b5e8 93be 8e4e cd3d 179c 9d3e 20bc 353e
000002f0: 5b3a 2fbe 46e5 4b3e 5286 83be 665f 63bd
00000300: 77d1 343e 83e9 1e3e 9283 92bd 4da9 98be
00000310: 4ef5 913d 6a1d 3a3e 3c00 4ebe e8f6 823e
00000320: ae34 1d3d 2b1a 193e fd30 87be e08c 83bd
00000330: ac77 07bd 07c9 78be 2072 a3bd b482 1b3e
00000340: eb46 81bb 6eb5 26bd 7a77 3abd 4561 41bc
00000350: 8ca3 7d3e d279 6cbe a478 72be d806 8abe
00000360: 5936 3abe 465e 0aba e854 cf3c 0e99 9b3e
00000370: 3e8b a8bd 4123 e23d eff4 663e 19f4 a43d
00000380: 1ebe a93d c107 6cbe 527b 993e 60ca 033e
00000390: 7d7e 0bbe c40d fe3d e01f f3ba 8a59 d33d
000003a0: 52a4 89be cf44 5ebe 4929 613c ab79 4cbe
000003b0: 3c0d 4b3e dc67 41be e673 c1bd 03c1 563e
000003c0: f180 e63d 69f3 12be 1744 123c 88d2 78be
000003d0: a1ce a03e 97e4 98bd c375 9bbd 48ec 8b3e
000003e0: 8be6 95bd 6da9 283e ac52 553e c5b1 073e
000003f0: bd97 88be d085 43be 1c6a d13d 9a09 7d3e

net.0.bias f4 [64]
-0.09191944 -0.23620951 -0.21864755 0.16522814 -0.144179 0.14915109 -0.054317076 0.054462302
0.29990235 0.26198912 -0.16013232 0.27066755 -0.135078 -0.30809852 -0.29010683 -0.16774124
0.09216843 -0.1949724 -0.28941783 -0.027876742 -0.25301674 0.19719192 0.017117191 0.05940761
-0.15520741 0.27541703 -0.048653413 -0.27755803 0.17538613 0.018802604 -0.045278985 -0.1767605
-0.03415178 -0.030824332 0.045018226 0.25543675 -0.18922071 -0.1758135 0.012353476 -0.30336285
0.002467189 0.16076912 0.180402 -0.059488077 -0.013652575 -0.28773215 0.04913963 -0.049223255
0.22258666 0.00968332 0.06324121 0.11737438 0.3115015 0.083754905 0.15887757 -0.3048798
0.163393 0.08667456 0.05408861 -0.08917 0.19734868 -0.2872769 -0.23022974 0.066719234
00000000: 4240 bcbd e8e0 71be 25e5 5fbe 9131 293e
00000010: a9a3 13be 10bb 183e 957b 5ebd dd13 5f3d
00000020: cd8c 993e 7023 863e baf9 23be f094 8a3e
00000030: e351 0abe 17bf 9dbe e288 94be 5cc4 2bbe
00000040: cdc2 bc3d d8a6 47be 932e 94be c45d e4bc
00000050: 698b 81be aeec 493e 5a39 8c3c 6555 733d
00000060: b1ee 1ebe 7603 8d3e cd48 47bd 161c 8ebe
00000070: 6c98 333e eb07 9a3c 7576 39bd b400 35be
00000080: bde2 0bbd 4f83 fcbc 0865 383d 9bc8 823e
00000090: 13c3 41be 7408 34be 3c66 4a3c 6052 9bbe
000000a0: 90b0 213b a9a0 243e 4dbb 383e c5a9 73bd
000000b0: 0daf 5fbc a151 93be a346 493d 539e 49bd
000000c0: c2ed 633e caa6 1e3c 9c84 813d fb61 f03d
000000d0: 207d 9f3e b187 ab3d cdb0 223e 3519 9cbe
000000e0: 7f50 273e 6f82 b13d 058c 5d3d c39e b6bd
000000f0: c615 4a3e f515 93be 58c1 6bbe 18a4 883d

net.1.weight f4 [64]
1.0002651 1.000474 0.9998931 1.0001743 1.0005486 0.99932003 1.0004199 1.0003797
0.9997438 0.9998879 0.9995153 1.0000308 0.999437 1.0003896 1.0003301 0.9998592
1.0004584 0.9994824 0.99983877 1.0003873 1.0003086 1.0003713 0.99980056 0.99961853
0.99965936 0.9999591 1.0001336 1.0005939 1.0005709 0.9994694 1.0000385 0.9994937
1.0002334 1.0001003 1.000292 1.0005764 1.0001667 0.9995771 1.0001022 0.9998927
1.0006318 0.9997451 1.0000412 1.0004251 1.0005958 0.99997944 0.999803 1.0006032
1.0001314 0.9999993 1.0001742 0.9998636 0.9999041 0.99958926 1.0003825 1.0005776
1.0002733 1.0000112 0.9998615 0.9995762 0.99939674 0.99974877 1.0003984 0.99938685
00000000: b008 803f 880f 803f fff8 7f3f b605 803f
00000010: fa11 803f 70d3 7f3f c20d 803f 710c 803f
00000020: 36ef 7f3f a7f8 7f3f 3ce0 7f3f 0201 803f
00000030: 1adb 7f3f c40c 803f d10a 803f c6f6 7f3f
00000040: 050f 803f 14de 7f3f 6ff5 7f3f b10c 803f
00000050: 1d0a 803f 2b0c 803f eef2 7f3f 00e7 7f3f
00000060: ade9 7f3f 52fd 7f3f 6104 803f 7613 803f
00000070: b512 803f 3add 7f3f 4301 803f d2de 7f3f
00000080: a607 803f 4903 803f 9109 803f e312 803f
00000090: 7605 803f 49e4 7f3f 5903 803f f8f8 7f3f
000000a0: b414 803f 4bef 7f3f 5a01 803f ee0d 803f
000000b0: 8613 803f a7fe 7f3f 17f3 7f3f c413 803f
000000c0: 4e04 803f f4ff 7f3f b505 803f 10f7 7f3f
000000d0: b7f9 7f3f 15e5 7f3f 890c 803f ed12 803f
000000e0: f508 803f 5e00 803f ecf6 7f3f 3ae4 7f3f
000000f0: 77d8 7f3f 89ef 7f3f 0e0d 803f d1d7 7f3f

net.1.bias f4 [64]
0.00016061554 0.00019146752 6.1918763e-07 0.00017449952 0.0004316138 -0.00057611114 -0.0001812641 0.00035074574
8.770421e-05 -0.00056118565 -0.000508641 -0.00036451855 -0.00037448163 0.00028307008 5.9374208e-05 -9.617425e-05
0.0003477366 -0.000117630196 0.0002873459 0.00037099223 -0.0004945427 0.00057534524 0.0001300583 -0.00041556032
-0.0005653015 -0.0003350352 0.00047806173 -4.067811e-05 0.00053159834 -0.00042914238 -0.00015896416 -0.0005918988
-0.00012195697 0.00034053106 0.00034350116 0.0005290175 -7.100222e-05 -0.00051695126 0.0003163976 -0.00023334421
0.00060698856 -8.15408e-06 0.00029912914 -0.0003806404 0.0005907162 9.229085e-05 -0.00022208947 -2.4282112e-05
0.00031494742 9.965569e-05 8.591882e-06 0.00015574839 0.00013973945 -0.0004277979 -3.349428e-05 0.0005364277
0.000477743 -0.00024762948 0.00022210545 -8.2808474e-05 -0.0005934781 -0.0003019341 0.00015717173 -0.00058866845
00000000: e86a 2839 acc4 4839 4036 2635 dcf9 3639
00000010: 394a e239 2a06 17ba b611 3eb9 4ce4 b739
00000020: d7ed b738 881c 13ba 5256 05ba da1c bfb9
00000030: 1356 c4b9 0669 9439 9208 7938 28b1 c9b8
00000040: 6b50 b639 3bb0 f6b8 eaa6 9639 bc81 c239
00000050: 33a4 01ba c4d2 163a 4260 0839 90df d9b9
00000060: be30 14ba aaa7 afb9 5ca4 fa39 ca9d 2ab8
00000070: f65a 0b3a 84fe e0b9 9eaf 26b9 a829 1bba
00000080: 26c3 ffb8 4e89 b239 f217 b439 c3ad 0a3a
00000090: 07e7 94b8 0384 07ba 2be2 a539 dcad 74b9
000000a0: 501e 1f3a 82cd 08b7 6fd4 9c39 b190 c7b9
000000b0: 4bda 1a3a 468c c138 b0e0 68b9 70b1 cbb7
000000c0: 871f a539 3efe d038 da25 1037 6450 2339
000000d0: 0687 1239 104a e0b9 367c 0cb8 0e9f 0c3a
000000e0: 9479 fa39 44d4 81b9 fae4 6839 76a9 adb8
000000f0: a493 1bba e94c 9eb9 77ce 2439 df50 1aba

net.1.running_mean f4 [64]
-0.042174708 -0.10763621 -0.11996728 0.10708265 -0.07168763 0.06254196 -0.032020584 0.043336056
0.15714893 0.14299724 -0.08294184 0.13715968 -0.07889431 -0.18268138 -0.15911138 -0.09552004
0.06764387 -0.08872121 -0.14271972 -0.018584192 -0.12794262 0.12200144 0.007293932 0.033146113
-0.07526843 0.15872553 -0.033887107 -0.15494876 0.10310744 -0.000262531 0.0014841983 -0.098256715
-0.024926625 -0.014868979 0.040854186 0.14008096 -0.0721528 -0.08386556 0.031298004 -0.17610106
-0.0119482875 0.064701095 0.110717215 -0.009669537 -0.03595305 -0.1528691 0.0026825918 -0.01238001
0.106220886 0.014343878 0.039396483 0.07454123 0.15019402 0.0191219 0.095768124 -0.13535559
0.083474316 0.036842763 0.039877906 -0.040531073 0.098872885 -0.14233229 -0.10381352 0.027624678
00000000: 63bf 2cbd 6070 dcbd 68b1 f5bd 264e db3d
00000010: f7d0 92bd 0016 803d 0428 03bd 2681 313d
00000020: a6eb 203e de6d 123e 69dd a9bd 9673 0c3e
00000030: 5793 a1bd d410 3bbe 18ee 22be 03a0 c3bd
00000040: df88 8a3d 77b3 b5bd 1e25 12be e03d 98bc
00000050: 6403 03be e4db f93d f001 ef3b 38c4 073d
00000060: 5626 9abd f288 223e 35cd 0abd e3aa 1ebe
00000070: fe29 d33d 50a4 89b9 6e89 c23a d13a c9bd
00000080: ec32 ccbc 059d 73bc b856 273d 6271 0f3e
00000090: d9c4 93bd b5c1 abbd 5632 003d d653 34be
000000a0: c0c2 43bc 0282 843d b5bf e23d fa6c 1ebc
000000b0: 8143 13bd b889 1cbe 6cce 2f3b 87d5 4abc
000000c0: 568a d93d 9602 6b3c 355e 213d 13a9 983d
000000d0: 76cc 193e 88a5 9c3c 1422 c43d a89a 0abe
000000e0: 95f4 aa3d 70e8 163d 0457 233d e903 26bd
000000f0: de7d ca3d 8ebf 11be 2f9c d4bd 264d e23c

net.1.running_var f4 [64]
0.61226165 0.57298887 0.6836999 0.58798206 0.77660066 0.6273958 0.5526277 0.6677468
0.65853876 0.6328241 0.5351582 0.6267591 0.68811333 0.66072756 0.6836034 0.54702014
0.5952079 0.6654713 0.58206546 0.7078739 0.5008333 1.0019884 0.6030401 0.49571446
0.52516013 0.7367436 0.8385333 0.65335715 0.5437161 0.5857553 0.7820499 0.56923145
0.7793541 0.5626645 0.9522144 0.6221747 0.70423925 0.7103876 0.8507088 0.86771476
0.8374945 0.60489374 0.52732843 0.7209293 0.6333732 0.59881586 0.8160656 0.64304245
0.6290215 0.78005004 0.63596755 0.710737 1.0203538 0.6220401 0.7960132 0.6452114
0.64542353 0.590912 0.6176926 0.54776925 0.53718835 0.61371505 0.66146135 0.5862641
00000000: 2ebd 1c3f 66af 123f f506 2f3f fe85 163f
00000010: 4dcf 463f 039d 203f 0279 0d3f 74f1 2a3f
00000020: ff95 283f c300 223f 2100 093f 4973 203f
00000030: 3228 303f 7125 293f a200 2f3f 8309 0c3f
00000040: 8c5f 183f 545c 2a3f 3e02 153f 3937 353f
00000050: 9c36 003f 2841 803f d660 1a3f 49ce fd3e
00000060: e570 063f 3b9b 3c3f 1eaa 563f 6a42 273f
00000070: fa30 0b3f 0ff4 153f 6c34 483f 27b9 113f
00000080: c083 473f c80a 103f 53c4 733f d746 1f3f
00000090: 0649 343f f6db 353f 0dc8 593f 8e22 5e3f
000000a0: 0a66 563f 51da 1a3f fffe 063f d38e 383f
000000b0: bf24 223f ff4b 193f ade9 503f 6e9e 243f
000000c0: 8e07 213f 5cb1 473f c5ce 223f dcf2 353f
000000d0: f49a 823f 053e 1f3f 85c7 4b3f 932c 253f
000000e0: 7a3a 253f 0246 173f 1a21 1e3f 9b3a 0c3f
000000f0: 2d85 093f 6e1c 1d3f 8855 293f 6715 163f

net.4.weight f4 [32, 64]
-0.06557168 0.046682045 -0.07113485 0.041700736 0.07547838 0.09179933 0.023105 -0.12433676
-0.03857502 0.106064565 0.020292202 0.017522434 0.08581806 0.0026112553 -0.12161174 0.011675842
-0.017044049 0.08764697 -0.123578735 -0.08034596 -0.03514375 0.08556693 -0.0049975174 -0.12228896
0.030553004 0.0934832 0.073992826 -0.0731317 0.01080258 -0.109128065 0.08416347 -0.032601062
0.090675525 0.104610234 -0.020071918 -0.11586174 0.10934319 -0.049903624 -0.0030063938 -0.08733777
-0.06643222 -0.07085351 0.12474043 0.05220299 0.03031161 -0.06728718 0.105154775 0.0985714
-0.09490233 -0.08318848 0.01739547 -0.112174414 -0.11028033 0.014058432 -0.02614325 -0.016085131
0.1229892 0.050323546 -0.039050464 0.11332851 0.031915378 0.04885658 0.0949823 -0.089053944
0.095892996 0.106347434 -0.06801523 -0.111055434 0.0077808453 -0.046430133 -0.010567939 -0.019641485
0.091141306 0.11733693 -0.11902275 -0.079608805 0.01130779 0.042598683 -0.010835513 -0.056598995
0.071592346 -0.07051642 -0.036276955 -0.0023534263 -0.081788465 0.006438032 -0.01779686 0.019966029
-0.062495753 -0.09544212 0.033675548 -0.08133555 -0.052706137 0.035660423 -0.02563438 0.062929615
0.020600604 0.03388688 -0.014183924 0.069335654 -0.03125346 0.022070838 -0.05702126 0.039933875
-0.07929237 0.016411906 -0.011780556 0.028466452 0.07581802 0.1242734 0.035378966 0.11689319
-0.05368246 -0.045492623 0.117503054 0.11174115 -0.09253817 -0.00060415623 -0.10363337 -0.02227014
0.057305105 -0.07165107 -0.07407809 -0.099182904 -0.018791856 0.028230267 -0.007976606 0.09830541
-0.072812304 -0.012443626 -0.112344414 -0.06643722 0.08205849 -0.006969386 0.09638681 -0.0015685976
-0.07642245 0.07003242 -0.03620735 0.00056602503 -0.10604417 -0.10442515 -0.083476946 0.02770669
0.081339486 0.07985097 -0.060091387 0.0067289025 -0.013469328 -0.12100663 0.09887299 -0.072420366
0.05774143 0.07810965 0.092522785 0.108906865 0.06215473 0.020259475 -0.09199296 0.062264685
-0.10274658 -0.029037949 -0.011840458 -0.10768983 -0.011429323 -0.084385 -0.022264069 0.030535197
0.0234477 0.08392302 0.016496046 0.09811248 -0.1150309 0.11963189 0.025745055 0.061724704
-0.030255834 -0.008438909 -0.11999046 0.1234797 0.08182961 -0.018816832 -0.1041494 0.033909127
0.1112499 -0.12064469 -0.11445159 0.033197407 0.006252597 -0.031056087 -0.060385615 0.11180646
0.07086757 -0.07936561 0.09616752 0.005083229 0.08031812 -0.119137205 0.10776818 -0.028501064
0.093917884 0.10753428 0.012911903 0.10250202 -0.041076887 -0.108631074 0.078908816 0.06042353
0.10942511 -0.07037624 -0.0029522837 -0.06907336 0.027749142 -0.12041574 0.066093825 0.095319696
0.091080874 -0.039116647 0.056868482 -0.100573406 -0.1013966 0.022085285 -0.03547643 -0.10829717
0.05837042 0.063442506 0.07217756 -0.046565175 0.054711707 -0.062662594 0.118493974 0.06765017
0.07599578 0.03868197 -0.092617445 -0.0024008276 0.0037987637 0.009842626 0.06445567 0.005036512
0.01620225 0.007290356 -0.030318653 -0.04051579 0.08568679 -0.116394885 0.022941424 0.12018514
-0.019670347 -0.076961294 0.05636144 -0.024861388 -0.0712291 0.010325968 0.045680705 0.118278936
00000000: 724a 86bd ac35 3f3d 26af 91bd 64ce 2a3d
00000010: 6994 9a3d 4a01 bc3d b246 bd3c 45a4 febd
00000020: d700 1ebd 6138 d93d d53b a63c 358b 8f3c
00000030: 61c1 af3d 9821 2b3b 930f f9bd 084c 3f3c
00000040: f69f 8bbc 4180 b33d d916 fdbd 6c8c a4bd
00000050: e5f2 0fbd b73d af3d 37c2 a3bb a272 fabd
00000060: 4b4a fa3c 1f74 bf3d 8d89 973d 13c6 95bd
00000070: 4efd 303c 897e dfbd e65d ac3d b188 05bd
00000080: 17b4 b93d e43d d63d dd6d a4bc ec48 edbd
00000090: 53ef df3d be67 4cbd eb06 45bb 25de b2bd
000000a0: 9e0d 88bd a51b 91bd e977 ff3d cdd2 553d
000000b0: 0e50 f83c dccd 89bd 635b d73d cddf c93d
000000c0: 275c c2bd b95e aabd f280 8e3c b3bb e5bd
000000d0: a7da e1bd 5655 663c 5e2a d6bc f7c4 83bc
000000e0: c3e1 fb3d 1020 4e3d 61f3 1fbd c718 e83d
000000f0: b3b9 023d d61d 483d 1586 c23d ea61 b6bd
00000100: 8c63 c43d afcc d93d 924b 8bbd 0871 e3bd
00000110: 76f6 fe3b 862d 3ebd 2625 2dbc 2ee7 a0bc
00000120: 4ba8 ba3d 584e f03d 33c2 f3bd f109 a3bd
00000130: 4f44 393c f57b 2e3d 6f87 31bc 59d4 67bd
00000140: 029f 923d ea6a 90bd 2597 14bd f13b 1abb
00000150: b680 a7bd 20f6 d23b b8ca 91bc cc8f a33c
00000160: 8cfb 7fbd 2977 c3bd 5fef 093d 4193 a6bd
00000170: 64e2 57bd aa10 123d 31ff d1bc 3ee1 803d
00000180: 99c2 a83c f8cc 0a3d b063 68bc daff 8d3d
00000190: a103 00bd e7cd b43c 208f 69bd b491 233d
000001a0: 0a64 a2bd 4372 863c 3c03 41bc 7a32 e93c
000001b0: 7a46 9b3d 0d83 fe3d 89e9 103d b265 ef3d
000001c0: 24e2 5bbd 7956 3abd 71a5 f03d 8bd8 e43d
000001d0: a784 bdbd 3d60 1eba bb3d d4bd de6f b6bc
000001e0: c2b8 6a3d ccbd 92bd 41b6 97bd 6820 cbbd
000001f0: 61f1 99bc 2943 e73c 4fb0 02bc 5954 c93d
00000200: 9e1e 95bd 5ae0 4bbc d414 e6bd 3d10 88bd
00000210: 480e a83d 725f e4bb 7366 c53d 6799 cdba
00000220: 6083 9cbd 286d 8f3d 294e 14bd 4c61 143a
00000230: b02d d9bd dadc d5bd f6f5 aabd 24f9 e23c
00000240: 5195 a63d e888 a33d 6322 76bd 207e dc3b
00000250: 75ae 5cbc 53d2 f7bd ec7d ca3d 2151 94bd
00000260: 4782 6c3d f4f7 9f3d 967c bd3d 900a df3d
00000270: f595 7e3d 33f7 a53c ce66 bcbd 4109 7f3d
00000280: cd6c d2bd fee0 edbc 7bfe 41bc 7c8c dcbd
00000290: 0e42 3bbc 0bd2 acbd 2363 b6bc f324 fa3c
000002a0: 6415 c03c d5df ab3d b722 873c 32ef c83d
000002b0: 5295 ebbd 9001 f53d 4be7 d23c 0bd3 7c3d
000002c0: 15db f7bc 5a43 0abc 8fbd f5bd ede2 fc3d
000002d0: 4896 a73d c225 9abc 484c d5bd 4ce4 0a3d
000002e0: fdd6 e33d 9014 f7bd 9865 eabd 01fa 073d
000002f0: 96e2 cc3b 5669 febc e856 77bd c9fa e43d
00000300: 0423 913d 708a a2bd 7af3 c43d 3791 a63b
00000310: d47d a43d 35fe f3bd 90b5 dc3d 107b e9bc
00000320: 0558 c03d ef3a dc3d 728c 533c 94ec d13d
00000330: 3d40 28bd f879 debd f29a a13d aa7e 773d
00000340: 461a e03d 6b21 90bd 1a7b 41bb 5576 8dbd
00000350: 2b52 e33c 879c f6bd 335c 873d f936 c33d
00000360: 9c88 ba3d c738 20bd edee 683d 6ef9 cdbd
00000370: 05a9 cfbd 33ec b43c bc4f 11bd e8ca ddbd
00000380: d215 6f3d 25ee 813d d4d1 933d 20bb 3ebd
00000390: 6219 603d 3f55 80bd f8ac f23d 2c8c 8a3d
000003a0: ada3 9b3d fc70 1e3d 37ae bdbd 3457 1dbb
000003b0: aef4 783b f742 213c 5601 843d 5309 a53b
000003c0: 95ba 843c f0e3 ee3b d35e f8bc e3f3 25bd
000003d0: 8e7c af3d 7160 eebd a7ef bb3c a023 f63d
000003e0: b523 a1bc e29d 9dbd 41db 663d 1caa cbbc
000003f0: 90e0 91bd 402e 293c b11b 3b3d 3a3c f23d

net.4.bias f4 [32]
-0.042912528 0.06001267 -0.062928155 0.035675254 0.09996917 0.0903195 -0.051404163 -0.093722746
-0.01574509 0.07591693 -0.06712783 0.10397762 0.024644762 -0.046715405 0.06013229 0.105815925
0.032318592 -0.08920181 0.064503856 0.021264441 0.007968302 -0.055039585 0.057934232 0.096733905
-0.094115585 -0.1063651 0.0957855 0.035348542 -0.095392644 0.08458049 -0.056783333 -0.06703368
00000000: 0cc5 2fbd d8cf 753d 7ae0 80bd 3720 123d
00000010: a3bc cc3d 6ef9 b83d 2c8d 52bd b6f1 bfbd
00000020: d9fb 80bc 567a 9b3d 517a 89bd 38f2 d43d
00000030: d0e3 c93c a758 3fbd 474d 763d 05b6 d83d
00000040: 8060 043d 70af b6bd 991a 843d c432 ae3c
00000050: 7b8d 023c 3071 61bd 724c 6d3d 6d1c c63d
00000060: acbf c0bd f2d5 d9bd 302b c43d a2c9 103d
00000070: 385d c3bd 8938 ad3d a495 68bd f448 89bd

net.5.weight f4 [32]
1.0005747 1.0001445 0.999425 0.99947155 1.0002831 1.0004174 0.99976534 1.000519
1.0005678 0.999345 0.99939907 1.0003624 0.99998534 0.99943817 0.99937516 0.99946725
0.9994384 0.9995384 0.9993765 1.0003425 0.9993832 0.99966186 0.9994015 0.99947464
1.0003698 0.9993804 1.0004752 0.99948186 1.0003794 1.0005423 0.9993999 1.0003523
00000000: d512 803f bc04 803f 51da 7f3f 5edd 7f3f
00000010: 4709 803f ad0d 803f 9ff0 7f3f 0211 803f
00000020: 9b12 803f 13d5 7f3f 9ed8 7f3f e00b 803f
00000030: 0aff 7f3f 2edb 7f3f 0dd7 7f3f 16dd 7f3f
00000040: 32db 7f3f c0e1 7f3f 23d7 7f3f 390b 803f
00000050: 94d7 7f3f d7e9 7f3f c7d8 7f3f 92dd 7f3f
00000060: 1e0c 803f 65d7 7f3f 920f 803f 0bde 7f3f
00000070: 6f0c 803f c511 803f acd8 7f3f 8b0b 803f

net.5.bias f4 [32]
0.00062332524 0.0004781598 -0.0005756978 -0.00061973656 0.0004448315 0.0005544517 -0.00035789923 0.00047757375
0.000663666 -0.0006603937 -0.00061299984 0.0005442203 0.00033218152 -0.00057934795 -0.000630819 -0.00056661136
-0.0005382007 -0.00059695554 -0.00065881934 0.00053708657 -0.0006724402 0.0004169545 -0.0002191671 -0.00057235337
0.00058203103 -0.000664493 0.00050043495 -0.00064039713 0.00049463415 0.00067400036 -0.00059519697 0.00053579116
00000000: a666 233a 86b1 fa39 6dea 16ba d175 22ba
00000010: 4638 e939 a058 113a 6ca4 bbb9 dd62 fa39
00000020: dff9 2d3a 451e 2dba b9b1 20ba 02aa 0e3a
00000030: a628 ae39 62df 17ba 8c5d 25ba a588 14ba
00000040: 0a16 0dba 027d 1cba 9eb4 2cba 45cb 0c3a
00000050: b346 30ba b09a da39 38d0 65b9 fc09 16ba
00000060: 7193 183a 5f31 2eba 9f2f 033a 53e0 27ba
00000070: 56aa 013a 66af 303a fe06 1cba 5674 0c3a

net.5.running_mean f4 [32]
-0.01917307 0.011131761 -0.076452345 0.15271133 -0.07969755 0.07177366 -0.3713073 -0.040853612
-0.11969516 0.058221392 -0.06889478 0.03841264 0.12919052 -0.12280278 0.027582493 0.013569271
0.056616444 -0.1472569 0.02592003 -0.097223826 0.029820677 0.008395413 0.23135686 0.06751509
0.1838186 -0.033984937 0.1784105 0.016716583 -0.16835973 0.19718084 -0.16152817 -5.545281e-05
00000000: d810 9dbc fd61 363c 0c93 9cbd 5c60 1c3e
00000010: 7838 a3bd 12fe 923d fe1b bebe 1e56 27bd
00000020: bc22 f5bd 8e79 6e3d b518 8dbd 9356 1d3d
00000030: 854a 043e 0680 fbbd aef4 e13c a651 5e3c
00000040: a5e6 673d 83ca 16be 3e56 d43c 491d c7bd
00000050: 7e4a f43c ea8c 093c d0e8 6c3e 5a45 8a3d
00000060: f13a 3c3e ca33 0bbd 3eb1 363e 37f1 883c
00000070: 7e66 2cbe c6e9 493e a467 25be 0096 68b8

net.5.running_var f4 [32]
0.70950645 0.58320093 0.60685 0.7099019 0.6075278 0.7395855 0.69099456 0.632966
0.631841 0.62545276 0.6121687 0.61442304 0.68487155 0.60510665 0.60299736 0.5842404
0.598505 0.67616045 0.5725957 0.62919706 0.6472819 0.587543 0.6495063 0.5807832
0.60514915 0.67234194 0.6072745 0.5938478 0.5945834 0.59867483 0.59969556 0.62226105
00000000: 37a2 353f a84c 153f 865a 1b3f 22bc 353f
00000010: f186 1b3f 7a55 3d3f 05e5 303f 0f0a 223f
00000020: 55c0 213f ac1d 203f 17b7 1c3f d44a 1d3f
00000030: be53 2f3f 45e8 1a3f 095e 1a3f c790 153f
00000040: a037 193f da18 2d3f a295 123f 0f13 213f
00000050: 44b4 253f 3869 163f 0b46 263f 35ae 143f
00000060: 0eeb 1a3f 9a1e 2c3f 5776 1b3f 6906 183f
00000070: 9e36 183f c142 193f a685 193f 804c 1f3f

net.8.weight f4 [2, 32]
0.1622186 -0.039383635 -0.15444215 -0.16695537 0.0698321 0.17292239 0.07794744 0.15265948
-0.044787094 0.07712599 -0.12423251 0.1357456 0.054862827 0.028059136 -0.0278987 -0.044203326
-0.12004226 -0.12466857 -0.0590831 0.16420576 -0.16822846 0.1477398 -0.1502198 -0.06260091
0.056411613 -0.03054044 0.015749225 -0.037200995 -0.033785895 0.012400732 0.077181 0.06253044
-0.09875066 -0.12235541 -0.077026255 -0.085250236 -0.17288487 0.12647201 0.1545877 0.12044369
-0.12061999 0.12006965 -0.0863162 0.027994744 -0.17445509 0.08676453 0.065608956 -0.013480808
0.024029022 0.14556998 -0.026676934 -0.096341334 0.16643262 0.06573972 0.16359575 0.05670743
-0.04423103 0.109719045 -0.025563592 0.044775955 -0.052502602 -0.06662669 0.11885751 -0.08773488
00000000: a21c 263e bc50 21bd 1526 1ebe 59f6 2abe
00000010: 2204 8f3d 9112 313e e8a2 9f3d c452 1c3e
00000020: ac72 37bd 3bf4 9d3d 9d6d febd e500 0b3e
00000030: d8b7 603d 46dc e53c d18b e4bc 8c0e 35bd
00000040: b7d8 f5bd 3c52 ffbd 1f01 72bd 8e25 283e
00000050: 1544 2cbe 1a49 173e 38d3 19be e834 80bd
00000060: dd0f 673d f22f fabc 8504 813c 1260 18bd
00000070: 1463 0abd 712c 4b3c 1211 9e3d f60f 803d
00000080: c93d cabd 7995 fabd f1bf 9dbd ad97 aebd
00000090: bb08 31be e181 013e 3d4c 1e3e 2eab f63d
000000a0: 9d07 f7bd 14e7 f53d 8cc6 b0bd 3c55 e53c
000000b0: 5ba4 32be 9ab1 b13d fd5d 863d 9bde 5cbc
000000c0: 83d8 c43c 4c10 153e 9689 dabc 9b4e c5bd
000000d0: 506d 2a3e 8ca2 863d a585 273e 0d46 683d
000000e0: 992b 35bd 61b4 e03d bd6a d1bc fe66 373d
000000f0: f80c 57bd 9373 88bd 916b f33d 58ae b3bd

net.8.bias f4 [2]
-0.12817992 0.14688689
00000000: 9941 03be 8469 163e
