flow_ffnn.pth (torch, 14509 bytes, 6 tensors)

net.0.weight f4 [64, 10]
00000000: 35f5 8fbd 99ad 313e bfc1 693e ac78 6e3e
00000010: a4af 42be d376 8dbe d360 9bbe 3dca 87be
00000020: 4dcf 163e fddd 323c 572f a33e 72b3 4dbe
00000030: 9ccd 0a3e b1de 2fbe 37ce 863e 24ef 563e
00000040: c434 133e 84c9 963e 34f7 51be dd85 9b3e
00000050: 44a8 95bd 0230 4f3e a72a 9fbe f920 dabd
00000060: 25d0 c53d b166 96be 7c79 1d3b df9d b83b
00000070: b957 2ebe b062 8fbe 56f8 3c3e d894 71be
00000080: 4776 e0bd 82e6 d23b 4e3a 9e3e 1b66 39bd
00000090: 1844 a1bd b680 543e 9895 84be e1f0 cc3c
000000a0: 4df9 f13c 8371 01be dd49 1ebe 866e b5bc
000000b0: 4657 363e e371 89be d09b 86be a7c8 6c3e
000000c0: cc17 273e 2ded 2b3e 75e5 89be 4881 0f3e
000000d0: aab9 903c b8b9 c33d 7f79 713e 9daa 47bd
000000e0: 9757 2e3c bee2 9cbd f350 7c3e c27c 443e
000000f0: 365a 72be ed81 ab3b 1a54 01be e802 d33d
00000100: c3ca c33d 1485 253e 596d a2bc e19a 993c
00000110: 94a9 803d 4d55 363e 5f92 28bd da9e 27be
00000120: d85a c5bb 1a34 9c3e 45d7 743e fcca 733e
00000130: 9413 203e 5f86 883e 26a5 2dbb b332 20be
00000140: ce43 55bd 53b8 ea3d a54c 90be d060 5d3d
00000150: 7a99 713e 3700 87be 00c2 1a3c 3f85 753c
00000160: 1bcf 85be 125c 483e b3d4 75be 6c4e 5f3e
00000170: 50e6 633e 23f0 25bb fa46 6ebe 35f6 8ebe
00000180: 7168 d03c b1bf 883e fe8c dabc 3650 d9bd
00000190: 4536 9c3e d908 6c3e 3a0a 00be 1bdb 223d
000001a0: e58f 74be 19a4 94be 58d3 8fbd 669e 07be
000001b0: 28e6 773e 4745 5d3e a853 27be 46ca 84bd
000001c0: 0db1 80bd af71 1f3e 3079 0bbe 067a 533e
000001d0: b87c 023d 25df 79be 78a9 4abd 3130 b4bd
000001e0: 5fbf 2a3e d815 953e 7379 12bc 1066 64be
000001f0: 31ed 803e e902 2c3e ab5d 89be 6b3c 8bbe
00000200: 7f10 9a3e 181f a0be 8a3b 1dbd 6aef 763e
00000210: f128 073d db7c 5bbe 7897 53bd b2a7 82bd
00000220: 08c0 97be 294c e2bc a1f6 903e c55b edbd
00000230: 8dc1 24be dc32 033e cccc 213e 9268 293d
00000240: 9686 823d 1e60 5bbe 3a95 fc3c 88f2 d1bd
00000250: 5ce1 cb3b c86a 6b3e 6762 9ebe 58bf 8e3e
00000260: 6fbd 143d 2993 8fbd 9d60 5e3d ff83 013e
00000270: 5732 81be 8c30 2d3e c135 533e 988a 3fbe
00000280: b7e5 f53d 4fa5 81be f61a ff3d 250a 853e
00000290: b614 a4bd 27af 4abe c535 623d 0fc5 903e
000002a0: 4b1e 2b3d 3d0c 823d f880 89bd cd68 8f3e
000002b0: 8f57 adbd 7412 623e 5dad 39bd eafa 633e
000002c0: 3c65 733e 6f5b a0be d1e0 babd e044 50be
000002d0: 0a8c 49bd 749b 58be f995 6bbe 9936 98be
000002e0: 8c20 8ebe 43f1 223e afef 9a3d 75b6 fa3b
000002f0: 52c5 bcbd 2b0f c03d d7dd 9abe fe4e 90bd
00000300: 145a 8abe 28c6 90be a1ed 13be 523b 89bd
00000310: a712 8b3e 00a4 f1ba fa8a 233e 188a 55be
00000320: fba8 a6bd 652b 43be 676e 133e 6658 483d
00000330: 356d 3bbe 82cb 863e 2a89 943e 0a97 773e
00000340: d1e0 fe3d 4bf3 e93d 7aa2 f33d 65ed d93d
00000350: 98d9 7fbe af6a e23d d7ed 99be 1405 9abe
00000360: 26b9 05be 1860 86be 886d 06be 6cd0 c9bd
00000370: 158f 8ebe 8038 85bd da53 643e 8aba 9cbe
00000380: e4ec 22be 58f2 f73d 6639 83be 90ca 9cbe
00000390: b0cf 97be d62f 7f3e e95f ecbd b180 b9bd
000003a0: 2c5a 8b3e e66d 9a3d 9b6b 5a3b 1b3c 883e
000003b0: 99ff 343e d270 72be 80c8 39bc 1481 1abe
000003c0: 010e 9b3e 8aa8 a0be 2cf8 9c3d ea5b 80be
000003d0: f656 683e fbb9 883e 3b81 95be 0e2f 90be
000003e0: a2b4 793e 804a 87be e39f dbbc 1f76 f8bc
000003f0: 7fe6 6ebe adb3 6abd 6da6 343e 9c0b 8e3c
-0.070291914 0.17351379 0.22827815 0.2328822 -0.19012314 -0.27629718 -0.3034731 -0.26521483
0.14727516 0.010917184 0.31872055 -0.20087984 0.13554996 -0.17174794 0.26329204 0.20989662
0.14375597 0.2945062 -0.20504457 0.30375567 -0.07307485 0.20233157 -0.3108723 -0.1065082
0.09658841 -0.29375222 0.002402871 0.005634054 -0.17025651 -0.2800498 0.18454108 -0.23591936
-0.109600596 0.00643617 0.30903858 -0.04526339 -0.07874316 0.20752224 -0.2589538 0.025017204
0.029537821 -0.12640958 -0.15457864 -0.022147428 0.1780673 -0.268447 -0.2629075 0.23123418
0.16317672 0.16789694 -0.26932874 0.1401416 0.017666657 0.095569074 0.23581503 -0.048746694
0.010641 -0.07660435 0.24640255 0.19188216 -0.23667225 0.005233994 -0.12629738 0.10303289
0.09560158 0.16164047 -0.019827532 0.01875061 0.062823445 0.17805977 -0.041155215 -0.16369191
-0.0060227923 0.305085 0.23910244 0.23807901 0.15632468 0.26665017 -0.0026496141 -0.1564434
-0.052066617 0.11460938 -0.28183475 0.054047406 0.23593703 -0.2636735 0.009445667 0.014985382
-0.2613457 0.19566372 -0.2400692 0.2180726 0.22255826 -0.0025320135 -0.23269263 -0.27922216
0.025440427 0.2670875 -0.026678558 -0.10611002 0.30510154 0.2305025 -0.12503901 0.039759737
-0.23883016 -0.29031447 -0.070227325 -0.13244018 0.24208891 0.21608458 -0.16340506 -0.06483893
-0.0628377 0.1557071 -0.13620448 0.20652017 0.031857222 -0.24401529 -0.049478024 -0.08798254
0.16674565 0.29118228 -0.008940089 -0.22304559 0.25180963 0.16797985 -0.26829275 -0.27194533
0.3009071 -0.31273723 -0.03838686 0.24114767 0.03299803 -0.21434347 -0.051658124 -0.063796416
-0.29638696 -0.027624207 0.28313163 -0.11589769 -0.16089459 0.1281237 0.1580078 0.04135949
0.063733265 -0.21423385 0.030832876 -0.10251337 0.0062219333 0.22989953 -0.3093445 0.2788036
0.03631347 -0.070104904 0.054291356 0.12648009 -0.2523372 0.1691305 0.20625974 -0.18705213
0.12006705 -0.25321433 0.12456314 0.25984302 -0.08011763 -0.19793378 0.05522706 0.28275344
0.041776937 0.063499905 -0.06714052 0.28009644 -0.08463966 0.22077352 -0.045331348 0.22263685
0.23769087 -0.31319758 -0.091249116 -0.20338774 -0.049205817 -0.2115305 -0.23006429 -0.29729155
-0.27759206 0.15912347 0.07565247 0.007651145 -0.09217323 0.09377893 -0.30247375 -0.070463166
-0.2702185 -0.2827618 -0.14446117 -0.067007676 0.27162668 -0.0018435717 0.15970984 -0.2085346
-0.08137699 -0.19059522 0.14397584 0.04891243 -0.18303378 0.2632714 0.29010898 0.2417871
0.12445224 0.114233576 0.11896224 0.106409825 -0.24985349 0.110555045 -0.3006427 -0.30082
-0.1305891 -0.2624519 -0.1312772 -0.098542064 -0.27843538 -0.06504917 0.22297612 -0.30611068
-0.15910679 0.1210677 -0.2562973 -0.30623293 -0.2965064 0.24920592 -0.11541731 -0.09057749
0.27217233 0.07540493 0.0033328298 0.26608357 0.17675628 -0.2367585 -0.011339307 -0.15088302
0.30284122 -0.31378585 0.076645225 -0.25070125 0.22689423 0.26704392 -0.29200158 -0.281609
0.24385312 -0.26424026 -0.026809638 -0.030329762 -0.23330115 -0.05730026 0.17641611 0.01733952

net.0.bias f4 [64]
00000000: 99c1 08be b579 973e 671f 7f3e 5a9e 143e
00000010: 12ab c5bd 63e6 3e3e 7353 9b3e 1997 63be
00000020: 8e54 b43d f3ba 783d 9726 933e a720 223e
00000030: c434 6ebe 5210 89be 0e65 9dbe 6019 88be
00000040: 4082 943e b71c 403e 5c46 9f3e b045 71be
00000050: 8345 d7bd 3adf 6c3e d2ba 56be 1ee4 803d
00000060: d43b 97be b9da 99be 4364 283e febf 79be
00000070: 56dd 88be effd 573e 1e29 e2bd dd87 38bd
00000080: c8e6 2ebe e3a5 9c3e 9178 ccbd 90cf dabd
00000090: b269 28be cc45 6d3d 7174 efbc dae3 0fbe
000000a0: 1e10 aa3c e58b 0b3e eda6 7b3d 0bfe 913e
000000b0: 0873 f93d b89c 07bd eace bbbd 1d93 8bbe
000000c0: 04fe 47be 1c13 96be 34a5 86be f5cd 16be
000000d0: 991a 38be a665 88bd 2a42 87be 434c 4bbe
000000e0: 3782 223e 0c71 cabd cfc8 ea3d 80f2 98be
000000f0: 505f 2ebe 97a8 8d3e d5da 2abe eeed 92be
-0.13355102 0.29585043 0.24914323 0.14513531 -0.0965177 0.18642573 0.30337104 -0.22225608
0.0880519 0.060725164 0.2874038 0.15832768 -0.23262316 -0.26770264 -0.3074116 -0.2658186
0.29005623 0.18760954 0.31108367 -0.2356174 -0.10511305 0.23132029 -0.20969704 0.0629351
-0.29537833 -0.30049685 0.16444497 -0.24389645 -0.26731366 0.21092962 -0.11042999 -0.045051444
-0.17080224 0.30595312 -0.09983934 -0.10684121 -0.1644657 0.05792789 -0.029230328 -0.14051762
0.020759638 0.13627584 0.06143849 0.28514132 0.121801436 -0.033108443 -0.09170325 -0.27260676
-0.19530493 -0.29311454 -0.26297915 -0.14727004 -0.17978896 -0.06660013 -0.26417667 -0.1985331
0.15869986 -0.09884843 0.114640824 -0.29872513 -0.17028546 0.27667686 -0.1668504 -0.2869715

net.2.weight f4 [32, 64]
00000000: 3d5e efbd aee4 d0bd 6153 653c 4b94 943c
00000010: debd e03d 019b d03d 3e48 3c3d 087c a03d
00000020: 7f26 d0bd a166 cdbd 6ec7 bd3c d8ec f53d
00000030: 5a4b 6d3c 4175 86bc a62d c63d eb49 223c
00000040: 8861 d7bc e810 04bc 1a1d 1f3c defe f13d
00000050: b11f 723d 71c3 d83d b432 463d 88b0 fabd
00000060: 1097 a4bd b02a d93d 9cae a83d 081d 283d
00000070: 9415 aa3d 000f f03d c021 6a3c 5714 393b
00000080: 0271 143d e426 153d 160c 6bbd 7c5e 37bd
00000090: 7a77 833d 4bd7 53bc 072d 7b3d b0ed d9bc
000000a0: 3f7e f1bd 5bf5 ebbc 4867 513d 003c a93a
000000b0: acac 3c3d 57aa 593d 1c6f a0bd b24e e4bd
000000c0: 485f dd3d 3975 a03d 1865 14bd e943 c93b
000000d0: bc00 fbbd 5e0a 2ebd afb7 2fbd 9fa2 d5bd
000000e0: 5ce1 67bd 0072 f939 4174 993c 6aed b6bd
000000f0: 007a 8dbd 138c f43d 99a7 4b3d 5a50 153c
00000100: 24b3 f8bd 1ee8 3abd c235 83bd 3a5a e93d
00000110: e9a2 96bd fc7a fbbd bfb8 07bd 388b 1c3d
00000120: 4bca c6bd 6172 f43d 68a7 7dbd fcda d63d
00000130: e0ed c4bc b27b 883d d07a 86bc 5a8f d9bd
00000140: b15a 30bd 3afc ffbd d7d9 933d 806e c13b
00000150: 67b2 a5bc 58eb 3bbd d049 203c fc8c 27bd
00000160: 3809 5abd a696 86bd 1759 b2bd e07e af3b
00000170: b84f a2bd 3eea a23d 284b b93d 637f a4bd
00000180: 08a8 983c 4c02 4cbd 607b 54bc 6ac9 b43d
00000190: b705 e73c a615 d5bd 1413 123d ea21 edbd
000001a0: 8c26 ebbd bff5 dd3d ed8d b33d 9e45 c6bd
000001b0: 7b20 d63d 96ab 9c3d e2a9 1f3d 7283 933d
000001c0: 540f 863b 688c 81bd 956a 94bc a094 d33c
000001d0: 448b d9bd 005f 49bc 58a2 fbbd 3bf6 f43d
000001e0: 6c10 53bd 94a5 6cbd 416e cc3a 0c4b 93bd
000001f0: 7729 e0bd a8f0 ac3d a1b8 923d c1ca 093d
00000200: 52a2 0f3d 4f5b c53d 08b6 293d d4a6 83bd
00000210: 1ccb da3d 9732 333d 5971 e03d 695c ed3c
00000220: bcbc ddbd 6296 af3d 6992 bb3d 345b 5cbc
00000230: fdfb 70bd 6fa1 67bd 751b 68bd 7dfb acbd
00000240: e642 39bd 4930 813d 486c 71bd 4038 883c
00000250: cbcb b3bd 9026 2dbc d09e 1bbc 7a6b b13d
00000260: 5c14 e8bd c792 b2bd 9904 54bd 68de d63d
00000270: 7526 cb3a 4206 843d 08a6 8ebc bebf 43bd
00000280: c511 f3bd 387d cb3c 90e1 803c a436 293d
00000290: 89db 87bd 4fc1 7dbd 80a4 d3bc 102e 66bd
000002a0: fcfb 6a3c 97dd f03b 5e1a a53d c8cb 913c
000002b0: a7fc 0bbd 005e 4ebd 0690 fd3b b7a8 af3d
000002c0: 7da3 063d 7129 7fbd 434d 35bd 2161 d33d
000002d0: d49d 133d edb8 ba3d 6ed5 e63d 6b10 28b7
000002e0: 6002 70bc b882 dabc 6617 21bd c83a 4bbd
000002f0: 1fed 683d aa92 693d 2ef1 d63d ccff 2b3d
00000300: 0894 b93c 689b 6ebd 002d 50bb f071 71bd
00000310: 20f1 debd b438 2ebd 4a5e d13d bc8a c63d
00000320: 38f4 22bd dcbc cd3d 9cca 1cbd 781d c73d
00000330: e42a 2f3d 4460 473d 9ce8 32bd 30fc 8cbd
00000340: 56ae f73d 9cf1 113d d0a3 53bd 1e4b e5bd
00000350: 18e4 cbbd 2868 9cbc 26ee b53d 00ca ba39
00000360: 10a9 f73d 9eb5 8c3d b479 b2bd 5adb f03d
00000370: 2209 d13d 0e19 a3bd 2639 963d fa53 f03d
00000380: 4461 cebd 8eb4 c7bd 7825 d83c 60a0 8dbc
00000390: 0c8b 23bd ba4c febd 7087 53bd e656 d83d
000003a0: 5410 b8bd 22fc e4bd 54a7 1ebd 7e53 e23d
000003b0: 6a6a c2bd 2aa8 a5bd 6012 d4bc 3469 e43d
000003c0: 6830 283d a8a4 fdbd 946c 373d 8071 9f3a
000003d0: be38 b7bd 0e8c e8bd 5840 b6bc 1c3d 4fbd
000003e0: c8b4 a63c 3673 8a3d 9ed5 ec3d 2adc d5bd
000003f0: c444 d53d 4019 803d 7040 bdbd 7032 db3c
-0.116878964 -0.10199867 0.01399693 0.018137118 0.10973714 0.10185815 0.045967333 0.07836157
-0.101635925 -0.100293405 0.023166385 0.12008065 0.014483297 -0.016413333 0.096766755 0.009905319
-0.026291624 -0.008060671 0.009711528 0.1181619 0.059112255 0.105841525 0.048388198 -0.12240702
-0.080366254 0.10603845 0.08236429 0.04104331 0.08304897 0.11721611 0.014290273 0.0028240883
0.036240585 0.036414042 -0.057384573 -0.04476784 0.06419273 -0.012929748 0.06132224 -0.026602596
-0.11791658 -0.028803518 0.051123887 0.0012911558 0.04606311 0.053140964 -0.078336924 -0.111478224
0.10809189 0.078348584 -0.036229223 0.0061421287 -0.122559994 -0.042490356 -0.042899784 -0.10431408
-0.056611404 0.00047577918 0.018732192 -0.08932002 -0.06908035 0.119407795 0.04972038 0.009113396
-0.12143543 -0.04563152 -0.06406738 0.113941625 -0.073552914 -0.12279317 -0.033135172 0.038218707
-0.09706553 0.119358785 -0.06192723 0.10490987 -0.024039209 0.06664218 -0.016415983 -0.10623045
-0.04305524 -0.1249928 0.07219284 0.005903065 -0.02022667 -0.04587874 0.009783223 -0.040905938
-0.053231448 -0.06571703 -0.08708399 0.005355701 -0.079253614 0.079548344 0.09047538 -0.080321096
0.018634811 -0.049806878 -0.012968868 0.08827479 0.028200967 -0.1040452 0.035662726 -0.11578734
-0.114819616 0.10837888 0.087673046 -0.09681247 0.10455414 0.07649915 0.038980372 0.072028056
0.0040911827 -0.063256085 -0.018117229 0.025827706 -0.10622266 -0.012290716 -0.12286824 0.11961027
-0.051529333 -0.057775095 0.0015596823 -0.071920484 -0.10945409 0.08444339 0.071641214 0.033640627
0.03506691 0.09636556 0.041433364 -0.06428304 0.10683271 0.043749418 0.10959119 0.028974729
-0.10827014 0.08573605 0.09158785 -0.013449479 -0.058834065 -0.05655044 -0.05666681 -0.08446405
-0.045229815 0.06308038 -0.058941156 0.016628385 -0.08779105 -0.010568276 -0.009498313 0.08663078
-0.11332008 -0.08719402 -0.051762197 0.104916394 0.0015499132 0.06446506 -0.017413154 -0.04779028
-0.11868624 0.024839982 0.015732557 0.041311875 -0.0663367 -0.06195193 -0.025835276 -0.056196272
0.014342304 0.0073506343 0.0806167 0.017797366 -0.034176495 -0.050382614 0.007738116 0.08577102
0.03287076 -0.06229538 -0.044263136 0.1032126 0.03603919 0.09117303 0.11271177 -1.0017403e-05
-0.014649004 -0.02667366 -0.039328955 -0.049616605 0.05686676 0.057024635 0.1049522 0.041991994
0.022653595 -0.058253676 -0.0031765103 -0.05894655 -0.10885835 -0.042534545 0.10223062 0.0969443
-0.039783686 0.10045788 -0.03827916 0.097224176 0.042765513 0.04867579 -0.043678865 -0.068840384
0.12093799 0.035630807 -0.051669896 -0.11195968 -0.09955615 -0.019092634 0.08883314 0.00035627186
0.12092793 0.06870578 -0.08714619 0.11760588 0.1020682 -0.07963763 0.07335119 0.11734767
-0.10077146 -0.09751235 0.026385054 -0.017288387 -0.039927527 -0.12416978 -0.051642835 0.105634496
-0.08987489 -0.11180903 -0.038733795 0.11051081 -0.09492953 -0.080887154 -0.025887668 0.111528784
0.04106179 -0.12384921 0.044781283 0.0012164563 -0.089463696 -0.11354838 -0.022247478 -0.050595388
0.020349875 0.06760256 0.11564182 -0.104423836 0.104135066 0.06254816 -0.09240806 0.026757449

net.2.bias f4 [32]
00000000: 3a96 b33d 411f a53c b738 fa3d 986d 233d
00000010: 9c35 98bd 3aea c5bd 08c7 dfbc 0225 273d
00000020: fd89 b73d d488 71bd 587a 9cbd 0464 dfbd
00000030: e352 0cbd 2a03 e93d dcd8 0e3d b64a 8a3d
00000040: 2671 dcbd c7cf 10b9 0016 e03d ea07 18bd
00000050: f0d8 06bd 0835 8dbc 692a c93d 5da5 f43c
00000060: 5bf7 51bd 6fdf 433d a6c2 c73d e8d0 e4bd
00000070: 0013 cdbb 35e8 913d 9c72 c9bd fa6c 99bd
0.08768888 0.020156505 0.12217849 0.03989944 -0.074321 -0.09663816 -0.027316585 0.040806778
0.08961866 -0.05896838 -0.07640523 -0.10907748 -0.034258734 0.113775566 0.034874782 0.06752531
-0.10763769 -0.00013810313 0.10941696 -0.037116922 -0.03292173 -0.017237201 0.09822542 0.029864008
-0.051261287 0.047820505 0.09753923 -0.11172658 -0.0062583685 0.07124368 -0.09836313 -0.07491489

net.4.weight f4 [2, 32]
00000000: f1b1 8cbd b361 c0bd 309b 783c dc64 2fbd
00000010: 1430 793d 6724 463d 5020 0abe 3514 e6bd
00000020: 4f19 b4bd 22e6 a6bd d9a4 9bbd 7b2c 8e3c
00000030: 9a84 88bd ece4 8f3c 85f2 0ebe 1cba e1bd
00000040: 7a84 643d 6cfc 46bd 1f90 c2bc 1baf 2ebd
00000050: c5c2 21be 9efd f7bd 8757 843d 54b1 243e
00000060: 5edd 093d dd77 15be 7d15 943d 1626 013e
00000070: f380 27be 2698 0b3c 4ab6 c63c 9185 b03d
00000080: 6240 56bd a6ea de3d d9a3 a83c 4849 f23c
00000090: 20b6 05bc a6e5 963d 8170 90bd 2470 d4bd
000000a0: e11a ddbd 779c ce3d fa70 253e be62 d23d
000000b0: 7c9d b4bd 232d cc3d 705e 443d 1a49 033d
000000c0: c281 0d3e 9e47 853d 3f86 ab3c 14f1 febd
000000d0: 28e4 0fbd b99d 263e c673 7fbd 8da3 24be
000000e0: b52f 083d 7fff ccbd 67a3 31bc 59e6 6fbd
000000f0: b063 38bc 2a3f 453d 7eb8 e5bd 6576 233e
-0.06869877 -0.09393635 0.015173718 -0.042820796 0.060836866 0.04837456 -0.13488889 -0.11234323
-0.0879389 -0.08149363 -0.075998016 0.017355194 -0.06665917 0.017565213 -0.13959701 -0.11021826
0.055790402 -0.048580572 -0.023750363 -0.042647462 -0.15796955 -0.121089205 0.06462007 0.1608327
0.033658378 -0.14596505 0.07230661 0.12612185 -0.16357784 0.008520162 0.024256844 0.08619226
-0.052307494 0.108845994 0.020585941 0.029575959 -0.008161098 0.07368021 -0.070527084 -0.103729516
-0.10796142 0.10088437 0.16156378 0.1027274 -0.088191 0.09969547 0.047941625 0.032052137
0.1381903 0.065078005 0.020938037 -0.12448326 -0.035129696 0.16271104 -0.06236627 -0.16078015
0.033248622 -0.100096695 -0.010842181 -0.058569286 -0.011254236 0.04815594 -0.1121683 0.15963133

net.4.bias f4 [2]
00000000: 9251 0ebe a454 08bc
-0.13898304 -0.008320961
