wifi_lstm.pth (torch, 84905 bytes, 8 tensors)

lstm.weight_ih_l0 f4 [256, 5]
0.4558096 0.0642871 0.07845671 0.118227586 -0.08948226 1.054739 -0.0920443 -0.032817475
0.10654543 -0.6346263 -0.07846824 -0.03459249 0.04045636 -0.016751349 0.096827775 -0.027263107
-0.11943982 0.14273338 0.123216406 -0.019821191 0.055295676 0.030370956 -0.0002603831 -0.049176067
-0.18701625 0.15018256 -0.08116811 0.14563325 -0.019957632 -0.13287513 -0.025618587 -0.1286599
0.10499429 -0.11764185 0.05118607 0.2200661 0.11855577 0.12977478 -0.05083321 -0.27452186
-0.052207988 0.12171182 -0.105295554 -0.062013805 -0.042062227 -0.031206742 -0.058054976 0.09708168
0.029964283 0.026453 -0.097718306 -0.07957765 -0.1475107 -0.122718856 1.3489912 -0.025548302
0.087510444 0.058079384 -0.033732504 -0.44711438 1.0602673 -0.08833718 -0.010605246 -0.09304614
-0.76295877 0.37092188 0.02141542 0.17596 0.08821532 1.7476503 0.63889474 0.12222613
0.4008929 0.088101655 1.0936872 0.41223323 0.0937396 -0.044546813 -0.007149905 -0.3863424
0.16637911 -0.028674869 -0.09828781 0.0645853 -0.43724632 -0.004674296 -0.14009109 -0.15888575
0.083557665 0.34763604 -0.024604917 -0.092444606 0.10284009 0.04101181 -0.065904334 -0.08241745
-0.055318374 0.09852416 0.0916682 -0.13413972 0.05929004 -0.07098477 0.12715182 -0.021336988
-0.23676965 -0.05432156 0.13889524 -0.15578046 0.090821326 0.03768007 0.05400939 -0.06426335
0.04962761 -0.0982849 0.0023165434 0.33125368 0.07303299 -0.05771435 -0.11791405 -0.32215694
0.018258423 -0.011773195 0.052651364 -0.0057344735 1.706963 0.41401646 0.048333768 0.1899075
0.045166656 0.43256566 0.23326471 -0.099651486 0.14411706 -0.11576475 -0.062360138 1.3909287
-0.028868662 0.068632774 -0.044130147 -0.21917187 0.6206604 -0.07151889 -0.02290737 -0.088519186
-0.45974723 0.06866205 0.020484397 -0.18891257 0.08794311 0.068859935 -0.010672411 0.17514166
-0.072590604 0.09935695 0.060591333 0.113269374 0.10213038 -0.15679392 -0.09541868 0.10253178
0.12927632 -0.025752198 -0.047560565 -0.027386546 -0.110646166 -0.34053653 -0.09334545 -0.08436772
-0.09823084 -1.0957181 0.11603023 0.042586904 -0.020692931 0.07481223 0.22910775 -0.0023842442
-0.12449391 0.0729891 -0.017959371 0.10460968 0.01038859 0.0035084132 -0.15284479 -0.048140675
-0.030850358 -0.25516334 -0.061753523 -0.039064616 -0.041580647 -1.6052392 0.21758054 0.10088739
0.091313355 0.045268863 0.29982972 -0.021665381 0.08773768 0.002522059 -0.10141027 -0.015370072
0.12923385 -0.02166285 0.06624325 0.111939475 0.29308158 -0.03467923 0.124481544 -0.009254177
0.06976643 -0.14499651 -0.11362818 0.1116582 -0.049962584 0.0061670244 0.03005305 0.14355345
0.06349456 -0.05516443 0.098621756 0.0949042 0.13421167 -0.09130316 0.0081695765 0.052428216
-0.041454073 -0.0079756845 -0.09286231 -0.15959942 0.020259544 0.16586544 -2.1364899 0.02802331
0.16754706 -0.09735522 -2.446581 -0.061068345 -0.04079386 -0.059734292 0.08991884 -0.5229967
0.52929384 -0.05939187 -0.011525429 0.011993736 -0.31398177 -0.36306214 -0.06916204 -0.04353152
-0.1177142 0.80752146 -0.23182471 0.044562843 0.07381142 -0.10114008 0.2138208 0.16131656
00000000: e05f e93e f5a8 833d e9ad a03d 4e21 f23d
00000010: 7a42 b7bd b001 873f b981 bcbd 9e6b 06bd
00000020: 7e34 da3d df76 22bf f5b3 a0bd dbb0 0dbd
00000030: 91b5 253d 203a 89bc a44d c63d e156 dfbc
00000040: dd9c f4bd b328 123e e258 fc3d 0d60 a2bc
00000050: b87d 623d 83cc f83c 0784 88b9 d86c 49bd
00000060: 3081 3fbe 75c9 193e 773b a6bd e220 153e
00000070: 307e a3bc 6b10 08be 12de d1bc 6cbf 03be
00000080: 3f07 d73d 36ee f0bd 7ca8 513d 0259 613e
00000090: 5ecd f23d aee3 043e 7c36 50bd 218e 8cbe
000000a0: 0bd8 55bd 0c44 f93d 32a5 d7bd 3002 7ebd
000000b0: 7149 2cbd 48a5 ffbc 0ecb 6dbd c3d2 c63d
000000c0: a877 f53c f6b3 d83c 8920 c8bd 9bf9 a2bd
000000d0: 0c0d 17be 0654 fbbd beab ac3f ac4a d1bc
000000e0: ad38 b33d a6e4 6d3d 182b 0abd 2dec e4be
000000f0: d7b6 873f 20ea b4bd a0c1 2dbc fa8e bebd
00000100: 4451 43bf 79e9 bd3e 646f af3c dc2e 343e
00000110: 3caa b43d 01b3 df3f 9b8e 233f b151 fa3d
00000120: d641 cd3e a46e b43d f1fd 8b3f 3c10 d33e
00000130: 8cfa bf3d b876 36bd c049 eabb acce c5be
00000140: 495f 2a3e 8fe7 eabc 1f4b c9bd 4c45 843d
00000150: c0de dfbe d62a 99bb 0a74 0fbe f2b2 22be
00000160: 4820 ab3d 5afd b13e 4090 c9bc 9953 bdbd
00000170: d39d d23d 00fc 273d daf8 86bd 7bca a8bd
00000180: 8595 62bd 09c7 c93d 8abc bb3d ec5b 09be
00000190: 1dda 723d 7760 91bd 1634 023e e8ca aebc
000001a0: be73 72be 4980 5ebd 8e3a 0e3e ea84 1fbe
000001b0: 8800 ba3d 6b56 1a3d f338 5d3d 819c 83bd
000001c0: 5246 4b3d 9849 c9bd 26d1 173b 159a a93e
000001d0: 5292 953d e265 6cbd ec7c f1bd c1f1 a4be
000001e0: b092 953c 5ce4 40bc f5a8 573d 40e8 bbbb
000001f0: c37d da3f f7f9 d33e a1f9 453d 1d77 423e
00000200: ac00 393d 3f79 dd3e f2dc 6e3e 1416 ccbd
00000210: 6c93 133e 1216 edbd 586d 7fbd f409 b23f
00000220: f97d ecbc 578f 8c3d d0c1 34bd 976e 60be
00000230: 9ae3 1e3f 7f78 92bd 3da8 bbbc 8c49 b5bd
00000240: fd63 ebbe b09e 8c3d e5ce a73c 4c72 41be
00000250: 841b b43d 7006 8d3d 56db 2ebc 5658 333e
00000260: 62aa 94bd a87b cb3d 9e2e 783d c6f9 e73d
00000270: bc29 d13d 968e 20be de6a c3bd 2ffc d13d
00000280: 0361 043e 46f6 d2bc dece 42bd c059 e0bc
00000290: 759a e2bd ce5a aebe e62b bfbd fcc8 acbd
000002a0: 402d c9bd 7e40 8cbf 42a1 ed3d 9b6f 2e3d
000002b0: 3984 a9bc 2837 993d 399b 6a3e fb40 1cbb
000002c0: aaf6 febd 4f7b 953d 881f 93bc 9a3d d63d
000002d0: e834 2a3c 68ed 653b 5883 1cbe 282f 45bd
000002e0: e4b9 fcbc c5a4 82be 43f1 7cbd 3802 20bd
000002f0: 7850 2abd 7a78 cdbf 6fcd 5e3e 0c9e ce3d
00000300: 7f02 bb3d d86b 393d 4883 993e 997b b1bc
00000310: d0af b33d 2149 253b 30b0 cfbd c1d2 7bbc
00000320: e155 043e 4a76 b1bc 8baa 873d 8640 e53d
00000330: ca0e 963e cf0b 0ebd 2ef0 fe3d d59e 17bc
00000340: b4e1 8e3d f779 14be e4b5 e8bd 0ead e43d
00000350: 91a5 4cbd c014 ca3b d031 f63c adff 123e
00000360: 7009 823d 19f4 61bd 34fa c93d 225d c23d
00000370: c96e 093e 27fd babd b0d9 053c f8be 563d
00000380: bfcb 29bd 72ac 02bc 982e bebd 086e 23be
00000390: 58f7 a53c a1d8 293e 40bc 08c0 2491 e53c
000003a0: 7591 2b3e 2c62 c7bd c894 1cc0 cd22 7abd
000003b0: 7617 27bd f2ab 74bd 5e27 b83d 1de3 05bf
000003c0: cd7f 073f e444 73bd 27d5 3cbc 6081 443c
000003d0: 38c2 a0be 48e3 b9be d4a4 8dbd 1b4e 32bd
000003e0: 2414 f1bd bab9 4e3f 7563 6dbe 8787 363d
000003f0: 712a 973d 8822 cfbd d7f3 5a3e 2b30 253e

lstm.weight_hh_l0 f4 [256, 64]
-0.15738977 -0.08173725 -0.06433466 -0.08959268 0.0068572513 -0.0073637147 -0.109047614 0.077253886
0.040894654 -0.06654178 0.05298645 0.058973126 0.21291864 0.16708195 -0.051968366 -0.01793368
0.17713282 0.09343182 0.08901986 -0.015841702 0.037095066 -0.17772043 -0.11517333 0.042398375
-0.36308834 0.1951464 -0.13059443 0.12839201 0.027557278 0.15290385 -0.33725902 0.07446937
0.035707515 -0.04445088 0.022320101 0.0033889883 0.089997776 -0.05422919 -0.06753909 0.09077294
-0.15323502 -0.23691474 0.05454513 -0.09364766 0.0048417295 0.13082804 0.051739752 0.077356905
-0.18997322 0.002311362 0.07262891 -0.13079828 0.008900819 -0.7444583 -0.030349588 -0.05391561
0.088002235 0.024743114 0.030551216 -0.045386903 0.015126013 -0.12593606 0.013426938 -0.035668563
-0.06565704 0.1317757 -0.021686152 -0.115351945 0.19832282 -0.015579817 0.0043352256 -0.08094403
0.20006065 0.026365744 0.2783279 0.071651295 -0.09929643 0.122342825 -0.14218162 0.049710985
-0.08530775 -0.15387717 -0.09544404 -0.048381608 -0.123031385 0.1581432 -0.11905372 -0.15881461
0.08846375 -0.35962015 0.040637005 -0.12343661 -0.075563714 -0.17688642 0.23360117 -0.20688505
-0.27372804 0.14781052 0.0709997 -0.10528503 0.032887533 0.21990731 0.2794849 0.08220831
-0.06384356 0.21036676 -0.065166004 -0.33650905 0.067040384 -0.23109546 -0.037695 0.08394402
-0.114237934 -0.024410924 -0.115293786 0.09477036 0.0954178 0.1322332 0.6257269 -0.08240017
-0.0057250597 -0.11028858 -0.112900786 0.15869324 0.031955265 0.15623361 0.0779179 -0.03882432
-0.11009929 0.11421938 -0.121128894 0.012425914 -0.07513117 -0.013492704 0.0650058 0.014439542
0.014177774 -0.104748085 -0.021232568 -0.070856094 0.061438777 0.0861916 -0.10805999 0.055025283
-0.003931494 0.06838883 -0.11064813 -0.019535024 0.040257946 -0.033911224 -0.017989622 -0.0590046
0.008468726 -0.05944584 -0.118550874 -0.07098702 -0.050998885 -0.11390945 -0.041383915 0.10477893
-0.021464832 0.04444782 0.060290374 0.12209428 0.018877031 -0.01845344 0.0813885 0.027301336
-0.038894445 -0.08173203 0.04397277 -0.07524073 0.049938466 -0.05047752 0.009248676 -0.015074117
-0.06180418 -0.026980298 0.040089067 0.07110265 -0.0049877157 -0.060660716 -0.015383432 -0.024996929
-0.13648267 -0.07378129 -0.08068419 -0.0910216 0.030742267 0.012894529 -0.02988771 -0.0635538
-0.12020776 0.03724736 0.01604727 0.11360489 0.053067796 -0.018612802 0.0902964 -0.08097451
0.032083828 -0.030494645 -0.080593586 -0.05529129 -0.00851825 -0.042505145 0.1048881 -0.09405703
-0.0150949545 0.109109744 -0.09224148 -0.07774192 -0.045117423 -0.030040683 0.0630344 -0.041114118
-0.10407401 0.0012378438 -0.023544341 0.0123122 -0.0554127 0.12118669 -0.02254727 -0.12080659
-0.024780447 -0.0452026 0.10300169 -0.045974433 -0.020226553 0.006769297 -0.015006285 -0.11334287
-0.033035032 0.072043076 0.0006619575 -0.0468532 -0.031761874 -0.07649618 -0.120238036 0.07109056
-0.076607645 0.12397301 0.018901715 0.10321444 0.020619692 -0.009424893 0.054738726 -0.004896775
-0.046014145 0.108876966 -0.12337055 0.04384789 0.08909713 -0.10064109 0.07702787 -0.047515992
00000000: c92a 21be dc65 a7bd e4c1 83bd 5e7c b7bd
00000010: cbb2 e03b 514b f1bb 5b54 dfbd 4937 9e3d
00000020: 2781 273d 0f47 88bd 5208 593d ce8d 713d
00000030: 5807 5a3e 8817 2b3e c8dc 54bd a7e9 92bc
00000040: 4e62 353e 2f59 bf3d 0b50 b63d 75c6 81bc
00000050: fff0 173d 58fc 35be ffdf ebbd eba9 2d3d
00000060: b7e6 b9be 75d4 473e 8cba 05be 3279 033e
00000070: cdbf e13c d492 1c3e 37ad acbe 6683 983d
00000080: 0b42 123d 2012 36bd a5d8 b63c ca19 5e3b
00000090: c150 b83d 6d1f 5ebd ef51 8abd 2ae7 b93d
000000a0: a4e9 1cbe c799 72be b76a 5f3d 58ca bfbd
000000b0: 5fa7 9e3b c9f7 053e 10ed 533d 4c6d 9e3d
000000c0: 5788 42be 387a 173b 77be 943d fcef 05be
000000d0: bed4 113c d294 3ebf b39f f8bc 9dd6 5cbd
000000e0: 843a b43d 12b2 ca3c 8b46 fa3c 9ee7 39bd
000000f0: 19d3 773c 62f5 00be a9fc 5b3c 3319 12bd
00000100: 3377 86bd 36f0 063e 28a7 b1bc a43d ecbd
00000110: 2315 4b3e 7d42 7fbc 820e 8e3b fcc5 a5bd
00000120: b3dc 4c3e f9fc d73c ff80 8e3e eabd 923d
00000130: ed5b cbbd e08e fa3d 0f98 11be bf9d 4b3d
00000140: d4b5 aebd fa91 1dbe 2a78 c3bd cb2b 46bd
00000150: e1f7 fbbd 4bf0 213e 70d2 f3bd 4ca0 22be
00000160: 7c2c b53d 2220 b8be fd72 263d 55cc fcbd
00000170: 26c1 9abd b721 35be 2535 6f3e add9 53be
00000180: 1526 8cbe a45b 173e 4a68 913d ae9f d7bd
00000190: 14b5 063d 622f 613e a518 8f3e d55c a83d
000001a0: 6ac0 82bd 626a 573e c175 85bd ea4a acbe
000001b0: 784c 893d 4aa4 6cbe 1366 1abd d8ea ab3d
000001c0: 94f5 e9bd 6bf9 c7bc 261f ecbd f616 c23d
000001d0: 686a c33d 2468 073e a32f 203f 6cc1 a8bd
000001e0: 4899 bbbb fbde e1bd 8738 e7bd 7b80 223e
000001f0: 86e3 023d b4fb 1f3e 6c93 9f3d 4006 1fbd
00000200: bd7b e1bd daeb e93d 6d12 f8bd 1096 4b3c
00000210: 5fde 99bd 8110 5dbc c321 853d d493 6c3c
00000220: e549 683c 2a86 d6bd ecef adbc 001d 91bd
00000230: 3aa7 7b3d 3985 b03d 8e4e ddbd 3162 613d
00000240: c3d3 80bb 710f 8c3d 7d9b e2bd ea07 a0bc
00000250: 84e5 243d 7fe6 0abd f95e 93bc cfae 71bd
00000260: 69c0 0a3c 7b7d 73bd cdca f2bd a561 91bd
00000270: 35e4 50bd 5c49 e9bd 2e82 29bd 5696 d63d
00000280: 04d7 afbc eb0e 363d 0af3 763d 910c fa3d
00000290: 01a4 9a3c ab2b 97bc 04af a63d 0da7 df3c
000002a0: c84f 1fbd 1f63 a7bd cb1c 343d d017 9abd
000002b0: 478c 4c3d 84c1 4ebd c287 173c 6ef9 76bc
000002c0: 6126 7dbd c905 ddbc 6f34 243d 449e 913d
000002d0: fe6f a3bb 5f77 78bd ca0a 7cbc 5cc6 ccbc
000002e0: 1dc2 0bbe a51a 97bd c13d a5bd 8869 babd
000002f0: 35d7 fb3c 9343 533c 12d7 f4bc 7f28 82bd
00000300: 7c2f f6bd b090 183d 9075 833c aea9 e83d
00000310: 9e5d 593d e079 98bc 52ed b83d f7d5 a5bd
00000320: 556a 033d e8cf f9bc 400e a5bd 1f79 62bd
00000330: 2190 0bbc e019 2ebd 92cf d63d f9a0 c0bd
00000340: d450 77bc ee74 df3d 1ae9 bcbd 2837 9fbd
00000350: 0ccd 38bd e117 f6bc 2e18 813d 4767 28bd
00000360: c124 d5bd 253f a23a 10e0 c0bc 1cb9 493c
00000370: 6df8 62bd ba30 f83d 0db5 b8bc 7269 f7bd
00000380: 5d00 cbbc 5d26 39bd 8df2 d23d b04f 3cbd
00000390: 28b2 a5bc fbd0 dd3b ecdc 75bc 4e20 e8bd
000003a0: be4f 07bd 528b 933d 3787 2d3a 24e9 3fbd
000003b0: bd18 02bd 07aa 9cbd 5c3f f6bd ed97 913d
000003c0: 78e4 9cbd 90e5 fd3d c5d7 9a3c 1862 d33d
000003d0: a1ea a83c de6a 1abc b735 603d 2075 a0bb
000003e0: 5479 3cbd e3fa de3d b3a9 fcbd d899 333d
000003f0: 8e78 b63d ea1c cebd cac0 9d3d 21a0 42bd

lstm.bias_ih_l0 f4 [256]
-0.10800201 0.09741074 0.049034312 -0.038146023 -0.0034230712 -0.1506249 0.0043200506 -0.019957483
-0.10449343 -0.048414465 0.21991567 0.019649459 0.093746126 -0.15119925 -0.27867055 -0.0065885773
-0.023861736 0.026863553 0.05922148 -0.04856751 0.0674834 0.059404947 -0.03480996 0.122479
0.10512959 -0.19205834 0.07040575 0.11626731 -0.13730621 -0.0688381 0.049801294 -0.0033794772
0.08628787 0.009388139 -0.053590655 -0.10989301 0.13863598 0.14563085 -0.14175265 -0.08822946
0.04678803 -0.0612919 0.10268106 0.031291794 -0.05468381 0.03531621 -0.04582579 -0.031585988
0.06976452 0.108671285 -0.053818166 -0.10916428 0.16531964 0.064916566 -0.016754597 0.070166215
0.081921026 -0.02878551 -0.12473378 0.08986653 0.16037217 -0.08819226 0.044334006 -0.08034766
0.11934429 0.09192697 -0.069176406 0.05885964 0.058904584 0.0418708 0.0050124936 0.09893988
0.1164214 0.109996736 -0.0567814 0.06329108 -0.04717031 -0.08066023 -0.10125796 0.007842962
0.2309146 -0.09482618 -0.00034520408 0.12110809 -0.034178358 -0.20887356 -0.008592943 -0.072548345
0.12579933 -0.121998675 0.0016150029 0.09247716 0.06620529 -0.045897912 -0.18632764 -0.0041601653
-0.054162547 -0.064008296 0.0828365 -0.08460383 -0.039920736 0.021484705 -0.21051267 0.0020643712
-0.016491756 -0.109808706 -0.035794653 -0.13932732 -0.032983445 -0.09220951 0.11688453 -0.08559502
0.08285797 0.039988928 0.08345362 -0.10655979 0.18741585 0.01192366 -0.12164978 -0.06664856
-0.010633098 0.024846924 -0.0902386 -0.063959934 0.10642881 0.02886949 0.04859616 -0.00094910734
-0.08763771 0.09306559 0.0008853886 -0.011410326 0.05026654 0.058364753 -0.068612315 0.12059005
0.06742282 -0.021156287 -0.09197498 -0.057367552 0.03705184 0.14860015 0.07235292 -0.032011975
-0.16786599 0.12471499 -0.060995873 -0.06530216 -0.02553372 0.076917924 0.05737861 0.03201052
-0.06305853 0.074511334 0.0016739757 -0.03906086 -0.09525903 -0.13455845 -0.033130694 0.06138065
0.0685036 -0.08696577 -0.0056589656 -0.049811088 -0.17320162 -0.03677706 0.08675496 -0.033592995
0.05159518 0.040999968 0.082852565 -0.038949564 0.05838508 -0.038231324 -0.31364644 -0.061278343
0.03280213 -0.13891701 -0.05833816 0.011502972 -0.08241989 -0.043489844 0.15444838 -0.122161746
0.0620308 -0.0055424366 0.12294008 -0.100268595 0.10265331 0.040149875 -0.01100038 0.112382114
0.038353823 -0.09850465 -0.13128838 0.006988941 -0.0007083646 0.017814301 0.08377646 0.040267173
0.19310115 -0.014746135 0.121186055 0.039551236 -0.08436454 0.12728027 0.16049331 0.07677166
0.10806457 0.10123899 -0.10805407 -0.019021934 0.022149377 0.10873039 -0.07141943 0.09951009
0.0146670565 -0.12948182 -0.15205422 -0.054384846 -0.12969542 -0.0019671111 -0.3079595 -0.08146016
0.102127835 0.046851363 -0.029232217 -0.056095958 -0.14183599 0.0042068856 -0.2934215 -0.1625406
0.05905304 -0.110688515 -0.06808628 -0.13655493 -0.123238236 0.05186 -0.017314885 0.029396763
0.06417597 -0.04726626 -0.118123665 -0.012953409 0.13957594 -0.1467597 0.031634293 -0.09995076
0.05328671 -0.121890366 0.0591648 0.013256514 0.08336952 -0.14088781 -0.05056391 0.040866494
00000000: 2830 ddbd 487f c73d 34d8 483d 013f 1cbd
00000010: 9b55 60bb 6a3d 1abe 368f 8d3b e07d a3bc
00000020: a700 d6bd 3f4e 46bd 9331 613e e7f7 a03c
00000030: f8fd bf3d fad3 1abe e8ad 8ebe fee4 d7bb
00000040: b079 c3bc f410 dc3c 3992 723d baee 46bd
00000050: bd34 8a3d 9a52 733d e394 0ebd 45d6 fa3d
00000060: 2f4e d73d f1aa 44be e430 903d 8e1d ee3d
00000070: 009a 0cbe fdfa 8cbd 71fc 4b3d 387a 5dbb
00000080: b2b7 b03d b5d0 193c e081 5bbd 960f e1bd
00000090: 97f6 0d3e 4120 153e 9b27 11be a6b1 b4bd
000000a0: cea4 3f3d 370d 7bbd 734a d23d d32b 003d
000000b0: 21fc 5fbd bba7 103d d3b3 3bbd 4f60 01bd
000000c0: b3e0 8e3d 0d8f de3d 7070 5cbd 8691 dfbd
000000d0: 8d49 293e faf2 843d f040 89bc 4eb3 8f3d
000000e0: 36c6 a73d 97cf ebbc 6d74 ffbd f10b b83d
000000f0: 9a38 243e 259e b4bd 9397 353d 508d a4bd
00000100: c76a f43d 3544 bc3d 5cac 8dbd ce16 713d
00000110: ef45 713d b780 2b3d d83f a43b fea0 ca3d
00000120: 586e ee3d f845 e13d 9d93 68bd c19e 813d
00000130: a835 41bd 3131 a5bd 5560 cfbd c47f 003c
00000140: e074 6c3e 3a34 c2bd 82fc b4b9 8507 f83d
00000150: 9bfe 0bbd f3e2 55be 6ac9 0cbc 3a94 94bd
00000160: 8ad1 003e 71da f9bd 81ae d33a aa64 bd3d
00000170: a496 873d 73ff 3bbd accc 3ebe ff51 88bb
00000180: 8cd9 5dbd c816 83bd 2fa6 a93d c644 adbd
00000190: ed83 23bd b100 b03c a290 57be 674a 073b
000001a0: b819 87bc 63e3 e0bd 6a9d 12bd d2ab 0ebe
000001b0: a619 07bd 57d8 bcbd 2861 ef3d 714c afbd
000001c0: 70b1 a93d 6ecb 233d bbe9 aa3d 053c dabd
000001d0: f1e9 3f3e 745b 433c 8523 f9bd 0a7f 88bd
000001e0: 7236 2ebc c78b cb3c 04cf b8bd 6dfd 82bd
000001f0: 59f7 d93d b57f ec3c c40c 473d 84cd 78ba
00000200: 667b b3bd 2c99 be3d 6c19 683a 60f2 3abc
00000210: 4ae4 4d3d e10f 6f3d 9d84 8cbd ebf7 f63d
00000220: fa14 8a3d f34f adbc 615d bcbd 3dfa 6abd
00000230: acc3 173d a32a 183e c52d 943d fd1e 03bd
00000240: 10e5 2bbe 936a ff3d cfd6 79bd 24bd 85bd
00000250: 182c d1bc 2587 9d3d d505 6b3d 771d 033d
00000260: d524 81bd 6699 983d 4e69 db3a 48fe 1fbd
00000270: 2b17 c3bd b1c9 09be 0db4 07bd 476a 7b3d
00000280: 9e4b 8c3d 1c1b b2bd d86e b9bb b606 4cbd
00000290: c45b 31be 8ba3 16bd 96ac b13d cf98 09bd
000002a0: 7855 533d 95ef 273d 9bae a93d 9489 1fbd
000002b0: 3225 6f3d 7398 1cbd 4496 a0be 00ff 7abd
000002c0: 875b 063d 4340 0ebe fff3 6ebd f676 3c3c
000002d0: c2cb a8bd 6822 32bd b727 1e3e f02f fabd
000002e0: 0214 7e3d 549d b5bb 02c8 fb3d 9f59 cdbd
000002f0: e63b d23d 3274 243d f03a 34bc 9828 e63d
00000300: e618 1d3d cebc c9bd 7670 06be 7d03 e53b
00000310: 8bb1 39ba 4cef 913c fe92 ab3d 31ef 243d
00000320: 4fbc 453e c699 71bc 6530 f83d 7a00 223d
00000330: 51c7 acbd c255 023e 5c58 243e 763a 9d3d
00000340: f550 dd3d 6356 cf3d 744b ddbd e3d3 9bbc
00000350: 9c72 b53c 0aae de3d 5a44 92bd f2cb cb3d
00000360: 184e 703c e296 04be 1ab4 1bbe a5c2 5ebd
00000370: e0ce 04be a6ea 00bb deac 9dbe 96d4 a6bd
00000380: 6628 d13d 37e7 3f3d 6778 efbc e0c4 65bd
00000390: 743d 11be ead9 893b 583b 96be 0b71 26be
000003a0: 9ae1 713d a9b0 e2bd d270 8bbd 0ed5 0bbe
000003b0: 5464 fcbd 276b 543d f2d7 8dbc 7bd1 f03c
000003c0: b16e 833d 449a 41bd d2ea f1bd 893a 54bc
000003d0: ffec 0e3e 2d48 16be f692 013d fcb2 ccbd
000003e0: 2a43 5a3d a8a1 f9bd ca56 723d da31 593c
000003f0: a4bd aa3d e544 10be 1a1c 4fbd a063 273d

lstm.bias_hh_l0 f4 [256]
-0.04651844 -0.06921223 -0.10578466 -0.09136922 -0.069255486 -0.08022604 0.032623824 -0.09016832
0.121040724 -0.08117865 0.07828483 0.08421999 0.020101927 -0.10249059 -0.33713526 -0.05457746
0.028427076 0.02442243 -0.0434484 -0.049472608 0.092065565 -0.06276346 0.09315027 -0.020503443
0.028441187 -0.08925013 -0.12937224 0.07894839 -0.02537909 -0.061931055 0.012333459 -0.050441623
-0.05066619 0.082347974 0.13226464 -0.096278906 0.083962694 -0.025351927 -0.1812808 0.074459344
-0.051234476 0.054311685 0.10058678 0.06304554 -0.036221188 0.053447515 -0.060819857 0.07563594
0.102755226 -0.048224423 -0.10326638 0.050052837 -0.058500428 0.017472742 -0.0008373733 -0.07637502
0.052715145 0.06216395 -0.07330745 -0.01945877 0.021377526 -0.07188114 -0.13359237 0.119412154
0.17574772 -0.08714949 0.061680235 0.047626562 0.10857557 0.06367025 -0.09666674 0.08764085
-0.00084265124 -0.06917876 0.06560629 0.043495286 -0.017407669 0.13912947 0.015986968 0.006577881
0.20297426 0.076707125 0.08221179 0.059637517 -0.023675583 -0.009690516 0.012805333 0.029192155
0.21261391 -0.13276139 0.037316896 0.16468617 -0.10135487 0.041553523 -0.21293503 0.059353452
0.13700797 -0.1478641 0.12148189 -0.093217865 0.1066792 -0.15899026 -0.16622904 -0.0065403944
-0.12874638 -0.07707752 -0.021105483 -0.15484224 -0.11067202 -0.14316972 0.014519425 -0.052997164
-0.02740338 0.051118396 0.057448104 -0.009148256 -0.046216045 0.19660336 0.017555673 -0.039705962
-0.06450769 -0.016346317 0.10121162 0.06280591 0.20138638 0.08213595 0.11286872 0.011273899
-0.07861084 0.031358074 0.06687093 -0.07715355 0.15213491 0.07125432 0.01595181 0.12515765
0.12963559 0.062142167 -0.08953654 0.0400342 0.10052545 0.15601419 -0.10243848 0.02633506
0.009874953 0.1751059 -0.0047885682 -0.11259508 -0.040236734 -0.00049779814 -0.066198364 0.067851566
-0.13549829 0.06374872 0.11905365 0.0908877 0.007831275 -0.1379281 0.09405148 -0.11477478
-0.065138385 -0.08541882 0.028518546 -0.08095176 -0.10969394 -0.05111709 0.046773195 -0.09752797
0.073780626 -0.10118062 -0.07506653 -0.19782563 0.102174185 -0.028564585 -0.25104803 -0.052046344
0.07935317 -0.11110921 -0.08218131 -0.02217125 0.018408967 -0.077211514 -0.06340433 0.061900757
-0.028770145 0.1069509 0.0961474 -0.0507515 -0.0029675069 0.056186922 0.0037241906 0.03502287
-0.06702969 -0.0822887 0.08352194 -0.09826353 0.1276232 -0.052812956 0.06757739 0.09966401
0.034117945 -0.044177055 0.1339478 0.06174069 0.08207645 0.15446378 0.09620427 -0.0071316175
0.07670174 0.058736693 0.067476034 0.07925851 0.0069483356 0.045383736 -0.11153425 0.1579037
-0.058734268 0.030609978 0.011731592 0.13944054 -0.07920698 0.11079197 -0.30399483 0.0042415285
0.05482357 0.11629684 -0.06158818 -0.109408565 -0.27634892 0.038133737 -0.3125093 -0.014584011
-0.05339747 -0.29383293 0.04124329 -0.10174337 0.046433344 0.07958902 -0.050428398 0.031852666
0.06589977 0.0989935 0.04656724 0.0074003013 -0.027349828 -0.018801592 0.09479573 -0.0020750817
0.06498748 0.0009716003 -0.14607073 0.029968543 0.040913988 -0.14916469 -0.122576416 0.06746807
00000000: 1f8a 3ebd 24bf 8dbd a1a5 d8bd c91f bbbd
00000010: d2d5 8dbd 8d4d a4bd 8fa0 053d 2baa b8bd
00000020: 33e4 f73d fe40 a6bd cc53 a03d 887b ac3d
00000030: ccac a43c 96e6 d1bd fe9c acbe 9d8c 5fbd
00000040: e6df e83c 8c11 c83c f3f6 31bd caa3 4abd
00000050: df8c bc3d 218a 80bd 92c5 be3d d6f6 a7bc
00000060: 7efd e83c c6c8 b6bd 287a 04be b2af a13d
00000070: cfe7 cfbc 6bab 7dbd 4712 4a3c e09b 4ebd
00000080: 5a87 4fbd 0ea6 a83d 6270 073e e02d c5bd
00000090: a2f4 ab3d d8ae cfbc ada1 39be 247e 983d
000000a0: 3edb 51bd ee75 5e3d 7100 ce3d 051e 813d
000000b0: ab5c 14bd c8eb 5a3d 3e1e 79bd 04e7 9a3d
000000c0: 5571 d23d f986 45bd 537d d3bd 3404 4d3d
000000d0: 259e 6fbd ff22 8f3c 2c83 5bba 826a 9cbd
000000e0: d6eb 573d a09f 7e3d 3722 96bd 0068 9fbc
000000f0: ec1f af3c 6b36 93bd 70cc 08be 5c8e f43d
00000100: 36f7 333e 6f7b b2bd 6aa4 7c3d 1214 433d
00000110: de5c de3d 8c65 823d 36f9 c5bd 0c7d b33d
00000120: 5ee5 5cba 98ad 8dbd 975c 863d 1d28 323d
00000130: 879a 8ebc f577 0e3e 1af7 823c 448b d73b
00000140: 7cd8 4f3e a018 9d3d a85e a83d 7846 743d
00000150: 4cf3 c1bc f8c4 1ebc 76cd 513c 6324 ef3c
00000160: 76b7 593e 9af2 07be 9ad9 183d 7ea3 283e
00000170: 2493 cfbd 0734 2a3d a40b 5abe 9b1c 733d
00000180: d14b 0c3e b069 17be 7fcb f83d 02e9 bebd
00000190: a07a da3d 58ce 22be f237 2abe ce50 d6bb
000001a0: 17d6 03be d2da 9dbd 68e5 acbc f78e 1ebe
000001b0: 03a8 e2bd 159b 12be e2e2 6d3c 8e13 59bd
000001c0: 0e7d e0bc 8661 513d b44e 6b3d 91e2 15bc
000001d0: 094d 3dbd 6452 493e ead0 8f3c b8a2 22bd
000001e0: 9c1c 84bd b6e8 85bc 0a48 cf3d 63a0 803d
000001f0: 3b38 4e3e e536 a83d b727 e73d 29b6 383c
00000200: b8fe a0bd 5371 003d a0f3 883d ae02 9ebd
00000210: 41c9 1b3e c9ed 913d 5fad 823c 5429 003e
00000220: 31bf 043e c988 7e3d ef5e b7bd e7fa 233d
00000230: 4ae0 cd3d 2fc2 1f3e 44cb d1bd a0bc d73c
00000240: 8eca 213c f64e 333e 6ce9 9cbb 4098 e6bd
00000250: 46cf 24bd ab7e 02ba 0293 87bd c3f5 8a3d
00000260: 10c0 0abe b08e 823d 66d2 f33d 5523 ba3d
00000270: c04e 003c 063d 0dbe 109e c03d 0a0f ebbd
00000280: 4667 85bd 10f0 aebd ba9f e93c 09ca a5bd
00000290: 37a7 e0bd 2760 51bd 4095 3f3d bfbc c7bd
000002a0: 4c1a 973d c937 cfbd 7bbc 99bd cd92 4abe
000002b0: b340 d13d 4700 eabc 5e89 80be 8c2e 55bd
000002c0: ea83 a23d 3a8d e3bd ad4e a8bd 7ba0 b5bc
000002d0: 67ce 963c 1221 9ebd 21da 81bd a68b 7d3d
000002e0: 5eaf ebbc 1309 db3d eee8 c43d cee0 4fbd
000002f0: 817a 42bb 4224 663d 8d11 743b 2474 0f3d
00000300: dd46 89bd fa86 a8bd 8d0d ab3d 643e c9bd
00000310: a8af 023e 6652 58bd 0466 8a3d a51c cc3d
00000320: 42bf 0b3d 00f3 34bd 9d29 093e cee3 7c3d
00000330: b317 a83d c12b 1e3e bf06 c53d 58b0 e9bb
00000340: cd15 9d3d e395 703d e030 8a3d 4952 a23d
00000350: ddae e33b 4ce4 393d 126c e4bd 82b1 213e
00000360: 5893 70bd c7c1 fa3c dd35 403c 80c9 0e3e
00000370: 4537 a2bd e6e6 e23d 36a5 9bbe 85fc 8a3b
00000380: ae8e 603d 0a2d ee3d e343 7cbd 9911 e0bd
00000390: 9b7d 8dbe 1f32 1c3d 3801 a0be c7f1 6ebc
000003a0: 4eb7 5abd 4571 96be b9ee 283d d45e d0bd
000003b0: e430 3e3d 91ff a23d 028e 4ebd f177 023d
000003c0: 75f6 863d 1bbd ca3d 4abd 3e3d 3a7e f23b
000003d0: bf0c e0bc cc05 9abc 4424 c23d 18fe 07bb
000003e0: 2818 853d feb2 7e3a 9193 15be 9780 f53c
000003f0: 6d95 273d a1be 18be 5809 fbbd b32c 8a3d

fc.0.weight f4 [32, 64]
0.08271656 -0.08930155 -0.09563121 0.0040715393 -0.0911518 -0.100011356 0.115934014 -0.041675497
0.1570647 0.096335866 0.21024415 0.12113413 0.07020278 0.14908996 -0.67085963 0.07887411
-0.1009788 -0.037191793 -0.060516674 -0.035174593 -0.09800688 0.051607557 -0.052164916 -0.16580844
-0.20286688 -0.19510204 -0.021741077 0.33778623 0.11775157 0.020188045 0.17252167 0.032420695
-0.020843163 -0.015790666 -0.04924975 -0.09799589 0.0835823 0.14988673 0.26289603 0.103319176
0.0061948667 0.24618943 0.047064688 -0.12884045 0.02099196 0.030229706 -0.092875265 0.081288114
-0.13048285 0.026547246 0.12450601 -0.037499115 0.1662789 0.25002366 0.18087988 -0.07583184
0.007211058 -0.15644777 -0.12464204 -0.059997596 -0.21360333 0.02823812 -0.05602283 0.020565962
0.012441528 -0.10222374 0.082926035 -0.012441861 -0.08150834 0.08467513 0.085030355 -0.03611891
-0.07503324 0.030446254 0.14271533 0.06541769 -0.009960826 0.005328615 0.16957974 -0.083151504
0.0138016455 -0.11138493 -0.018051658 0.01482467 -0.07509036 0.13059776 0.041290756 0.07684826
0.305679 0.013376113 0.10957667 -0.23218174 -0.006888457 -0.03354883 0.16064186 0.03942308
-0.07806668 0.07343664 0.067975275 0.09864958 -0.116179034 0.045843586 -0.016849875 -0.037759785
0.07981232 0.19510148 -0.07367817 0.1101683 -0.030541413 -0.053454183 -0.51774734 0.02606643
0.053930752 -0.14207074 -0.09622761 -0.092729405 -0.18398541 0.015822971 0.038381178 0.0579618
0.064243376 0.04190211 -0.103929356 -0.07517096 0.11414828 0.15536636 -0.039978035 -0.013023137
-0.06209712 0.18246128 0.098796725 -0.050002657 0.017103178 -0.04179183 -0.07989791 0.26288185
-0.04006059 -0.10946966 -0.14805014 0.06869701 -0.058482822 -0.31348938 -0.07468969 -0.08371447
0.15720402 -0.13972074 0.014712526 0.014074523 -0.0968608 0.011424131 -0.10021224 0.0045712893
-0.23016572 -0.010924238 0.023633294 -0.008162232 -0.011445796 -0.052007765 0.14011359 -0.16100743
-0.019682968 0.20733137 -0.1489752 0.0009869979 -0.08772457 -0.11050195 -0.03758866 0.0620936
0.03140939 -0.03013088 -0.0051411544 -0.02826244 -0.087410994 -0.069473416 0.1918869 -0.09133695
0.025922848 -0.02564796 0.010091476 0.08191886 0.02970382 -0.07292581 0.00764564 -0.03870441
-0.08773415 -0.0915679 -0.042233225 -0.07330048 0.03722039 0.038187694 0.030625343 -0.08320772
-0.015906256 -0.022116415 -0.010672894 -0.11981562 -0.10232601 -0.12196351 0.061518073 0.0121314
-0.10462732 -0.09511947 -0.016258625 0.017301913 0.07782096 0.09789895 0.022114899 -0.10032728
0.031089723 -0.16325222 0.04875389 -0.057914965 -0.08433511 -0.09436132 -0.08913714 0.12289747
0.1459523 0.07754357 0.01154172 0.012392769 0.09748707 -0.08357367 -0.039834093 0.061305434
-0.06403415 -0.112704925 0.056018084 0.04348504 0.07645419 -0.025101233 0.094741635 -0.12500009
0.06410569 0.03324246 -0.034147084 -0.11660224 0.10824446 -0.039294053 -0.17544273 -0.107254356
-0.015088657 -0.03398079 0.053933058 -0.15375751 -0.021176867 -0.03763985 -0.041149713 -0.082111135
0.05431125 -0.095140725 -0.011950446 0.05590028 -0.0059566074 -0.014508214 0.08806672 0.119638436
00000000: 4d67 a93d bbe3 b6bd 4cda c3bd 8c6a 853b
00000010: cbad babd c1d2 ccbd d06e ed3d edb3 2abd
00000020: 92d5 203e bd4b c53d 3e4a 573e 2c15 f83d
00000030: 7ac6 8f3d 0aab 183e 75bd 2bbf c088 a13d
00000040: f9cd cebd 6c56 18bd 55e0 77bd 3c13 10bd
00000050: d5b7 c8bd 7262 533d e1aa 55bd b0c9 29be
00000060: 56bc 4fbe d4c8 47be 581a b2bc 51f2 ac3e
00000070: bc27 f13d 6661 a53c 85a9 303e 90cb 043d
00000080: 48bf aabc 6d5b 81bc 1bba 49bd 12b2 c8bd
00000090: 322d ab3d e87b 193e 4f9a 863e 0199 d33d
000000a0: 4ffe ca3b 1519 7c3e e7c6 403d c0ee 03be
000000b0: 55f7 ab3c 4aa4 f73c 6335 bebd 627a a63d
000000c0: 4c9d 05be 9c79 d93c 02fd fe3d ac98 19bd
000000d0: 0445 2a3e 1a03 803e 9338 393e b94d 9bbd
000000e0: bd4a ec3b d833 20be 5344 ffbd 0ac0 75bd
000000f0: d5ba 5abe a153 e73c 3278 65bd f379 a83c
00000100: 8dd7 4b3c ae5a d1bd 20d5 a93d f3d8 4bbc
00000110: d8ed a6bd 286a ad3d 6524 ae3d 6cf1 13bd
00000120: 07ab 99bd 6c6a f93c f823 123e b6f9 853d
00000130: bb32 23bc aa9b ae3b 50a6 2d3e 564b aabd
00000140: 4c20 623c c81d e4bd 12e1 93bc 2ce3 723c
00000150: fac8 99bd 6bbb 053e 7f20 293d 9f62 9d3d
00000160: f581 9c3e 7c27 5b3c bc69 e03d 0dc1 6dbe
00000170: 91b8 e1bb 7f6a 09bd 4d7f 243e 187a 213d
00000180: 6ce1 9fbd f365 963d 9f36 8b3d ca08 ca3d
00000190: 46ef edbd 7cc6 3b3d c008 8abc 01aa 1abd
000001a0: a474 a33d afc8 473e 95e4 96bd eb9f e13d
000001b0: fc31 fabc c6f2 5abd 178b 04bf 4489 d53c
000001c0: 7ee6 5c3d fe7a 11be fb12 c5bd eae8 bdbd
000001d0: ac66 3cbe 2d9f 813c 9535 1d3d 5a69 6d3d
000001e0: 0892 833d 8ca1 2b3d ead8 d4bd 3bf3 99bd
000001f0: 93c6 e93d 5c18 1f3e 02c0 23bd ff5e 55bc
00000200: 8d59 7ebd 21d7 3a3e f055 ca3d 96cf 4cbd
00000210: f71b 8c3c e92d 2bbd 84a1 a3bd 7398 863e
00000220: 9316 24bd a131 e0bd 759a 17be 05b1 8c3d
00000230: af8b 6fbd ae81 a0be e8f6 98bd 7e72 abbd
00000240: 17fa 203e f412 0fbe cf0c 713c d498 663c
00000250: f55e c6bd 472c 3b3c 133c cdbd c1ca 953b
00000260: 90b0 6bbe 93fb 32bc 9c9a c13c e2ba 05bc
00000270: 2687 3bbc 1806 55bd f079 0f3e 22df 24be
00000280: 2d3e a1bc ad4e 543e f48c 18be 275e 813a
00000290: f0a8 b3bd d94e e2bd 91f6 19bd dc55 7e3d
000002a0: 22a7 003d 09d5 f6bc 2177 a8bb a286 e7bc
000002b0: 8904 b3bd 1448 8ebd 007e 443e de0e bbbd
000002c0: 275c d43c ac1b d2bc b856 253c 13c5 a73d
000002d0: 6d55 f33c 215a 95bd 4788 fa3b 8488 1ebd
000002e0: f6ad b3bd f387 bbbd bffc 2cbd 901e 96bd
000002f0: 6874 183d b36a 1c3d 00e2 fa3c cf68 aabd
00000300: d64d 82bc 7c2d b5bc 5ddd 2ebc e461 f5bd
00000310: 4d90 d1bd 01c8 f9bd 60fa 7b3d c8c2 463c
00000320: d946 d6bd ffcd c2bd cf30 85bc bebc 8d3c
00000330: 9860 9f3d 3f7f c83d 4e2a b53c 6478 cdbd
00000340: e0af fe3c 972b 27be 29b2 473d 3e38 6dbd
00000350: e3b7 acbd 8240 c1bd 888d b6bd abb1 fb3d
00000360: 8574 153e 2acf 9e3d 7b19 3d3c 0a0b 4b3c
00000370: 4da7 c73d ac28 abbd 1329 23bd 681b 7b3d
00000380: 5624 83bd d7d1 e6bd 3873 653d 5f1d 323d
00000390: 0494 9c3d 1aa1 cdbc e707 c23d 0600 00be
000003a0: d849 833d 3f29 083d d0dd 0bbd 28cd eebd
000003b0: 45af dd3d cdf2 20bd 42a7 33be 2ca8 dbbd
000003c0: 6a36 77bc 712f 0bbd e9e8 5c3d 9c72 1dbe
000003d0: 1c7b adbc 3e2c 1abd 9a8c 28bd e229 a8bd
000003e0: 7975 5e3d 24d9 c2bd cecb 43bc b1f7 643d
000003f0: a52f c3bb dcb3 6dbc 535c b43d ff04 f53d

fc.0.bias f4 [32]
0.03666172 0.05349052 -0.058807246 -0.068137184 0.032346323 0.01927794 0.005224103 0.031810597
-0.04827461 -0.13749103 -0.09708645 -0.061692443 0.0073572705 0.0042549316 -0.004211548 -0.11316622
0.03508958 -0.082229786 -0.055632792 -0.033058483 -0.035481293 0.039084133 0.12411006 -0.08497085
-0.02329984 -0.062177617 -0.08526942 -0.1377723 0.14337769 -0.09114037 -0.1063313 -0.014839623
00000000: 9a2a 163d e018 5b3d dedf 70bd 828b 8bbd
00000010: 947d 043d c5ec 9d3c f42e ab3b d44b 023d
00000020: 99bb 45bd 73ca 0cbe 43d5 c6bd 37b1 7cbd
00000030: 4215 f13b f46c 8b3b 0601 8abb b1c3 e7bd
00000040: 17ba 0f3d 1768 a8bd 36df 63bd 5568 07bd
00000050: d554 11bd af16 203d 6a2d fe3d 3205 aebd
00000060: 4edf bebc f5ad 7ebd bca1 aebd 2f14 0dbe
00000070: 9ad1 123e cda7 babd 3ac4 d9bd e421 73bc

fc.2.weight f4 [2, 32]
0.40566987 -0.22048533 0.26375777 -0.04018712 0.371146 -0.09579748 -0.03260249 0.079475924
-0.34516984 0.10781195 -0.15201859 0.06636157 -0.22903408 -0.32496506 0.45365888 0.120762825
-0.19680853 0.12940502 -0.28736255 -0.060527615 0.2793561 0.12057673 -0.04245053 0.37211347
0.33269203 -0.15806392 0.04734361 -0.10036112 0.46689123 0.076227635 -0.3583918 0.42400187
-0.48195753 0.18563122 0.026763571 0.11151661 -0.1776646 -0.09973122 0.17138052 0.09144198
0.5174269 0.018632405 0.1123668 -0.015001146 0.0829343 0.21908434 -0.36802363 0.12958504
0.3521592 0.09021858 0.3862599 -0.024627538 -0.14755264 0.015903259 -0.20245476 -0.18359005
-0.026419727 0.3734656 0.09542146 0.13196334 -0.41227493 0.0739803 0.3783556 -0.35418668
00000000: f6b3 cf3e e8c6 61be 420b 873e 409b 24bd
00000010: d906 be3e 7831 c4bd 308a 05bd 46c4 a23d
00000020: 1aba b0be 83cc dc3d c3aa 1bbe 93e8 873d
00000030: e987 6abe d261 a6be fa45 e83e 8052 f73d
00000040: 2d88 49be c082 043e 2f21 93be ceeb 77bd
00000050: c307 8f3e eff0 f63d 9be0 2dbd a885 be3e
00000060: 9c56 aa3e 82db 21be 60eb 413d 228a cdbd
00000070: 5e0c ef3e 3c1d 9c3d 217f b7be c616 d93e
00000080: 23c3 f6be 1c16 3e3e 473f db3c d262 e43d
00000090: b5ed 35be e23f ccbd 607e 2f3e ef45 bb3d
000000a0: 1776 043f fca2 983c 9120 e63d 5ec7 75bc
000000b0: 75d9 a93d a557 603e 986d bcbe f1b1 043e
000000c0: 364e b43e 85c4 b83d dcc3 c53e b1bf c9bc
000000d0: 0a18 17be 8d47 823c 4d50 4fbe 08ff 3bbe
000000e0: 2f6e d8bc e236 bf3e 546c c33d 6621 073e
000000f0: b315 d3be fc82 973d d3b7 c13e f557 b5be

fc.2.bias f4 [2]
0.058354896 -0.049548667
00000000: 8b05 6f3d 8bf3 4abd
