wifi_dl.pth (torch, 13909 bytes, 6 tensors)

net.0.weight f4 [64, 9]
0.04295233 -0.06821847 -0.2515138 -0.06127882 0.06794429 0.19955483 0.17887041 0.021843046
0.18322662 0.12090488 0.032951623 -0.054871365 0.10457004 -0.09127269 0.30544153 0.019182056
0.062049955 -0.019307356 0.98235947 1.0000178 0.09726103 -0.033977408 -0.24309996 0.29482886
-0.28073332 0.08862293 0.12301462 -0.40016574 -0.38394675 -0.16801162 -0.3963634 -0.14891261
-0.108786345 -0.25653112 -0.108242154 -0.036092874 -0.4709938 -0.22490025 -0.019335931 0.20837575
0.3153907 0.28869495 -0.32298994 0.063176066 0.1649874 -0.2806322 -0.5557235 -0.3428898
0.2681653 -0.09166316 -0.2463629 -0.26906985 0.23455611 0.5731567 -0.09613684 -0.090301
0.069573894 -0.07623206 -0.18197596 0.31940523 -0.18846218 0.07115698 0.00624876 -0.35574174
0.21668531 -0.25862703 -0.34361157 -0.22268166 0.19307324 -0.27529058 -0.32175297 -0.13273533
0.3090033 -0.31748515 0.06999046 0.0038275665 -0.4109503 0.22690228 0.22461101 -0.11965525
0.04817374 -0.19776335 -0.27985042 0.30906284 -0.0062722065 0.2357485 0.01784408 0.30566838
0.09730002 -0.7960802 -0.10343763 -0.025099903 -0.08831601 -0.32931918 -0.007038951 -0.29678628
-0.21622357 0.15802899 -0.18783212 0.2725996 -0.056497537 -0.37563446 0.00028406343 0.3656827
0.24389979 0.1217258 -0.19075084 -0.11329669 -0.2416517 -0.09394619 -0.17647895 -0.22784786
0.19545248 0.10007462 0.23221114 -0.09841466 0.17957541 0.32756045 0.26001862 -0.20620155
-0.04094839 -0.1590933 0.26491085 0.09736875 -0.11935258 -0.20794074 -0.38142323 -0.35329652
0.24127494 0.053195447 -0.07072562 -0.1999675 -0.06868839 -0.2970296 0.08886584 -0.2722438
-0.13334984 -0.0904214 -0.026066158 -0.044617765 -0.09634408 0.27738884 0.041278273 0.14582722
0.061206978 0.5125536 0.08462659 0.20333622 -0.24862026 -0.17032783 0.15538967 -0.05541587
-0.82348824 -0.60282177 -0.96379155 -0.19572964 0.15182719 0.36176136 0.10587886 -0.31295586
0.2128714 0.3666277 -0.18766342 0.39632422 0.1650835 0.024178604 0.27324057 -0.18789542
-0.32389712 -0.013984472 -0.28155655 0.081371516 -0.57772607 0.13292402 0.31709298 -0.1663209
0.25780293 0.14794639 0.09462568 0.45383543 -0.08543599 0.20386037 -0.3150981 -0.25331435
0.011210948 -0.09992468 -0.008148223 -0.15317039 -0.050917268 -0.026074111 -0.45843434 -0.13861425
0.0934676 0.23672612 0.05706933 0.3315703 -0.16581461 0.1285952 0.09858602 0.24603826
0.14065716 -0.36158514 0.12784204 0.03558913 -0.19067428 0.030991405 0.099687025 -0.07213512
-0.18032746 0.0075342655 -0.02388823 0.32091066 0.21620151 0.158106 -0.16098583 -0.2805127
0.21339668 0.010683385 0.06620901 0.012556719 -0.24314871 0.33271924 0.13556787 -0.029412746
-0.7375336 -0.21545048 -0.75875586 -0.09438628 0.10956771 0.23691171 -0.16700539 -0.308608
-0.05280617 0.06553949 0.36810672 0.1693675 -0.3097836 0.09388534 -0.039382156 0.29616603
0.21924874 -0.034769177 -0.1379624 0.4812434 0.73426044 0.23302582 -0.04264935 -0.12760112
-0.25071606 -0.012294501 0.23754278 0.3169246 -0.31006384 -0.21756877 -0.22880204 -0.00048519514
00000000: c8ee 2f3d 20b6 8bbd 6bc6 80be 80ff 7abd
00000010: 6026 8b3d 1a58 4c3e ce29 373e 30f0 b23c
00000020: c29f 3b3e fa9c f73d 48f8 063d ccc0 60bd
00000030: d128 d63d 2ded babd d562 9c3e b023 9d3c
00000040: 1828 7e3d 762a 9ebc e97b 7b3f 9500 803f
00000050: ca30 c73d e52b 0bbd 32ef 78be cff3 963e
00000060: 47bc 8fbe f07f b53d 17ef fb3d 86e2 ccbe
00000070: ab94 c4be 3d0b 2cbe 25f0 cabe 8c7c 18be
00000080: 60cb debd 0c58 83be 10ae ddbd 1fd6 13bd
00000090: 1926 f1be 404c 66be 6366 9ebc 7460 553e
000000a0: e47a a13e d3cf 933e f05e a5be 7462 813d
000000b0: 75f2 283e 06af 8fbe e543 0ebf 408f afbe
000000c0: f64c 893e e5b9 bbbd 8e46 7cbe 86c3 89be
000000d0: 7a2f 703e 66ba 123f 64e3 c4bd bbef b8bd
000000e0: c27c 8e3d 8e1f 9cbd e857 3abe 1589 a33e
000000f0: 3bfc 40be c0ba 913d 66c2 cc3b c823 b6be
00000100: c1e2 5d3e c36a 84be dbed afbe a906 64be
00000110: feb4 453e e3f2 8cbe cebc a4be c5eb 07be
00000120: ae35 9e3e 6a8d a2be 2957 8f3d e9d7 7a3b
00000130: 1468 d2be 1259 683e 6e00 663e d00d f5bd
00000140: d451 453d 7a82 4abe 8e48 8fbe 7c3d 9e3e
00000150: 1587 cdbb 0e68 713e c02d 923c 9180 9c3e
00000160: 3c45 c73d e9cb 4bbf 1cd7 d3bd 509e cdbc
00000170: 06df b4bd 869c a8be 00a7 e6bb 5ff4 97be
00000180: b669 5dbe 5ad2 213e 1057 40be 2d92 8b3e
00000190: f669 67bd 2953 c0be 59ee 9439 c33a bb3e
000001a0: dec0 793e 604b f93d 3054 43be 1808 e8bd
000001b0: 8b73 77be dc66 c0bd e6b6 34be f350 69be
000001c0: b224 483e ecf3 cc3d c2c8 6d3e a08d c9bd
000001d0: 9ee2 373e 01b6 a73e 2921 853e 8026 53be
000001e0: 80b9 27bd 5be9 22be 65a2 873e 4469 c73d
000001f0: 206f f4bd 6bee 54be e849 c3be 48e3 b4be
00000200: c710 773e 78e3 593d 98d8 90bd 48c4 4cbe
00000210: 80ac 8cbd 4414 98be 4bff b53d 8a63 8bbe
00000220: dc8c 08be db2e b9bd b288 d5bc 1ec1 36bd
00000230: 0c50 c5bd e905 8e3e 6813 293d bb53 153e
00000240: 2bb4 7a3d b636 033f b550 ad3d 5f37 503e
00000250: 4f96 7ebe 6b6a 2ebe 781e 1f3e c0fb 62bd
00000260: 20d0 52bf 8752 1abf 0bbb 76bf 5a6d 48be
00000270: 9678 1b3e c938 b93e 04d7 d83d c03b a0be
00000280: f6fa 593e a0b6 bb3e d72a 40be 02eb ca3e
00000290: a60b 293e 3512 c63c 30e6 8b3e a867 40be
000002a0: d8d5 a5be 201f 65bc 2e28 90be 1ca6 a63d
000002b0: dbe5 13bf 3c1d 083e 035a a23e 0750 2abe
000002c0: bffe 833e 427f 173e 1ccb c13d 1e5d e83e
000002d0: 10f9 aebd c6c0 503e 8a54 a1be 6bb2 81be
000002e0: 20ae 373c 50a5 ccbd 2080 05bc b3d8 1cbe
000002f0: a08e 50bd 6099 d5bc e8b7 eabe e5f0 0dbe
00000300: f16b bf3d 5568 723e 88c1 693d 95c3 a93e
00000310: 4ecb 29be 76ae 033e 78e7 c93d 74f1 7b3e
00000320: 6e08 103e b021 b9be 06e9 023e e8c5 113d
00000330: 1e40 43be b0e1 fd3c b628 cc3d 94bb 93bd
00000340: c3a7 38be 00e2 f63b 40b1 c3bc 674e a43e
00000350: ee63 5d3e 8ae6 213e 78d9 24be 5c9f 8fbe
00000360: a984 5a3e 5d09 2f3c 9798 873d b2ba 4d3c
00000370: fafb 78be 2d5a aa3e 4ed2 0a3e 00f3 f0bc
00000380: 01cf 3cbf 0d9f 5cbe d33d 42bf 984d c1bd
00000390: 0965 e03d fc98 723e 7603 2bbe de01 9ebe
000003a0: 484b 58bd 9139 863d 7c78 bc3e ad6e 2d3e
000003b0: f59b 9ebe f546 c03d 2f4f 21bd 13a3 973e
000003c0: be82 603e 206a 0ebd 0446 0dbe 8965 f63e
000003d0: 7ef8 3b3f 529e 6e3e 16b1 2ebd dea9 02be
000003e0: db5d 80be e06e 49bc 6a3e 733e f143 a23e
000003f0: b0c0 9ebe 59ca 5ebe 154b 6abe ca61 feb9

net.0.bias f4 [64]
-0.28825316 -0.2549158 -0.16567962 -0.22224487 -0.016103078 -0.09750588 -0.15217191 -0.014428037
0.24662174 0.13071692 0.13426909 -0.12200104 0.05625117 -0.21809988 0.19312239 -0.03169019
-0.17412433 -0.4952054 -0.046982512 -0.16502255 0.106850505 -0.29228002 0.13755296 -0.31569314
0.21323241 -0.15523374 -0.0116993245 -0.37555605 0.06744672 -0.059284758 -0.14334041 0.3712963
0.2121684 0.43088207 -0.20549844 -0.26345524 -0.18824753 -0.34894398 0.1162995 0.22541027
0.04233412 -0.006657664 0.07860095 0.18949513 0.101608105 -0.19109844 -0.09175723 -0.26967537
0.36088407 -0.01960221 0.16310132 0.25315547 -0.20328775 0.2681778 0.2880402 0.03312069
-0.2698991 -0.18398999 -0.13710998 0.012535294 0.2604069 -0.108789556 0.25522733 -0.2468503
00000000: eb95 93be 5384 82be eba7 29be 2994 63be
00000010: 9aea 83bc 2ab1 c7bd f4d2 1bbe 9363 6cbc
00000020: 698a 7c3e a8da 053e d67d 093e aedb f9bd
00000030: a067 663d 9355 5fbe e0c1 453e 93cd 01bd
00000040: a64d 32be 908b fdbe bc70 40bd acfb 28be
00000050: 70d4 da3d baa5 95be afda 0c3e 88a2 a1be
00000060: 9959 5a3e 98f5 1ebe 86ae 3fbc e248 c0be
00000070: 8221 8a3d 93d4 72bd d4c7 12be 8c1a be3e
00000080: ac42 593e 939c dc3e 2f6e 52be 9be3 86be
00000090: f6c3 40be c9a8 b2be 6f2e ee3d f3d1 663e
000000a0: 8b66 2d3d 8928 dabb 89f9 a03d 030b 423e
000000b0: e917 d03d 4faf 43be 37eb bbbd e412 8abe
000000c0: ccc5 b83e d094 a0bc 0804 273e 989d 813e
000000d0: aa2a 50be 9a4e 893e 017a 933e 90a9 073d
000000e0: 3730 8abe df67 3cbe 8f66 0cbe d560 4d3c
000000f0: 0e54 853e 0fcd debd 28ad 823e 53c6 7cbe

net.2.weight f4 [32, 64]
0.051337183 -0.07245312 -0.06603948 -0.15215226 0.08935596 -0.101879954 -0.04157492 -0.10861983
0.074435435 -0.087289445 -0.09131126 -0.024683699 0.10226107 0.019112617 -0.10175588 -0.11033203
-0.062684186 -0.12596434 0.06489815 0.029935708 -0.054311097 -0.09487966 -0.011173558 0.0064243674
0.07604611 -0.13739406 0.083832294 0.061726052 0.021708686 0.02684743 -0.00225164 -0.06707886
0.019926772 0.106460735 0.0023217732 0.0943488 -0.03775162 0.065733925 0.094182596 -0.12222263
-0.0118151875 -0.10335705 0.060450125 0.0060943877 -0.054468118 -0.055840895 0.0021053392 0.015451877
-0.10036223 -0.027229711 -0.07983673 -0.09437279 -0.12528257 -0.010079837 -5.9683844e-05 0.044786118
0.03397897 0.03148185 -0.09055142 -0.016677437 -0.14185643 0.06776823 0.062767275 0.012629047
-0.089208096 0.07825972 -0.2153889 -0.1089076 -0.10769857 0.0682185 -0.19605023 -0.12110474
0.18849252 0.07039337 0.040202424 0.06926154 -0.057729945 -0.0560984 0.033164427 0.028513476
0.093861066 -0.0067814584 -0.005492758 -0.049853593 0.033348635 0.09831414 0.073327936 -0.020619974
0.071847506 -0.0003798566 -0.014986605 -0.25408703 -0.10470814 0.026611907 -0.041842356 0.11894052
-0.117692426 -0.124034435 0.18259804 -0.10032287 0.0034148186 0.0023618622 0.09823971 0.0921389
0.037898622 -0.015088146 0.14739633 0.02360837 -0.07848 -0.0898849 0.014613587 0.56463814
-0.047476526 2.2754073e-05 -0.050974887 0.04367816 0.018646808 0.075820714 0.03791403 -0.06221044
-0.047273114 0.0060843644 0.20680839 -0.12927806 0.041123744 -0.08289062 0.02049392 -0.100802615
0.020653054 0.039016064 0.102108076 -0.10870917 0.034392066 -0.005103451 0.014095264 -0.04923856
-0.010589217 -0.06213008 0.093352586 -0.017792571 -0.118420884 0.10984902 0.0064695384 0.037608966
0.10545959 0.07090112 -0.065307036 0.004387588 0.0020418465 0.035714507 -0.0824599 -0.0044931024
-0.0681776 0.1138087 0.06284693 -0.009785539 0.06317526 0.008623999 0.023546042 -0.047920242
0.014539377 -0.07431357 -0.0061626155 0.073066875 0.015638541 -0.11479754 -0.06789502 -0.024764007
0.0723571 -0.13487107 0.08291379 -0.013420353 -0.12710108 -0.10049195 0.0072197374 -0.2442103
0.03869498 -0.07610589 0.02573471 0.061261535 0.012647642 -0.06262566 0.040758695 -0.047662985
0.10241544 0.0016434466 -0.14263144 -0.08451897 -0.00799836 0.09704665 -0.030005516 -0.11936918
-0.05567479 -0.05255318 0.012496535 -0.12687574 -0.026360124 -0.07852604 0.030315766 -0.07394322
0.032754708 -0.08790318 -0.10609347 -0.077427104 0.09895447 -0.04646939 0.061486352 -0.08638689
-0.03402011 -0.0037337414 -0.02064981 -0.11122597 -0.031150445 -0.09392524 0.08962737 0.09224114
-0.03663884 0.10729092 0.08718419 -0.0878111 -0.030928962 -0.024606844 0.021215856 -0.10184244
-0.03000626 -0.06717414 -0.038804397 -0.092250764 -0.079033665 -0.07614818 -0.054102495 0.013294002
-0.078365885 0.1203071 0.115632735 0.028244268 -0.06752803 -0.06935551 0.015537394 -0.05472771
-0.022687137 0.09946774 -0.09318784 -0.06296311 -0.09435164 -0.13740925 -0.0150366025 -0.14641607
-0.09823462 0.04615263 -0.08805184 0.05268013 0.026589988 0.086135566 0.09843299 -0.060219064
00000000: f046 523d 4d62 94bd b53f 87bd cdcd 1bbe
00000010: 4200 b73d 70a6 d0bd 774a 2abd 1374 debd
00000020: 9b71 983d cfc4 b2bd 6601 bbbd 7835 cabc
00000030: 406e d13d 1092 9c3c 6365 d0bd c2f5 e1bd
00000040: 9160 80bd ccfc 00be 52e9 843d bb3b f53c
00000050: 5075 5ebd 4450 c2bd 4d11 37bc 8083 d23b
00000060: 10be 9b3d 07b1 0cbe 44b0 ab3d 75d4 7c3d
00000070: 6ad6 b13c 24ef db3c 4090 13bb a460 89bd
00000080: 783d a33c 1608 da3d e428 183b f239 c13d
00000090: 71a1 1abd 829f 863d cee2 c03d dc4f fabd
000000a0: 7d94 41bc dcac d3bd 8d9a 773d 6eb3 c73b
000000b0: f619 5fbd 6cb9 64bd bbf9 093b df29 7d3c
000000c0: b68a cdbd d810 dfbc 7181 a3bd 8546 c1bd
000000d0: 134a 00be e725 25bc 0a55 7ab8 a671 373d
000000e0: 882d 0b3d 1df3 003d 0673 b9bd 1f9f 88bc
000000f0: d042 11be 12ca 8a3d 218c 803d 10ea 4e3c
00000100: bcb2 b6bd a246 a03d e88e 5cbe f30a dfbd
00000110: 1191 dcbd 24b6 8b3d 64c1 48be c305 f8bd
00000120: 2f04 413e 662a 903d 4cab 243d ffd8 8d3d
00000130: 3c76 6cbd 70c7 65bd 6cd7 073d 1895 e93c
00000140: 3b3a c03d ff36 debb 98fc b3bb 4833 4cbd
00000150: 9498 083d ed58 c93d f52c 963d 38eb a8bc
00000160: c924 933d 7d27 c7b9 618a 75bc b217 82be
00000170: 3971 d6bd 3701 da3c e462 2bbd 1697 f33d
00000180: ba08 f1bd c405 febd fbfa 3a3e 1476 cdbd
00000190: 26cb 5f3b 79c9 1a3b e731 c93d 52b3 bc3d
000001a0: 963b 1b3d 4534 77bc 10ef 163e 5766 c13c
000001b0: 1fba a0bd 9315 b8bd d46d 6f3c 208c 103f
000001c0: bf76 42bd 00e0 be37 0bcb 50bd dfe7 323d
000001d0: 31c1 983c e447 9b3d be4b 1b3d 60d0 7ebd
000001e0: 74a1 41bd 595f c73b 94c5 533e 7861 04be
000001f0: 5f71 283d 8fc2 a9bd dee2 a73c 9a71 cebd
00000200: 9830 a93c 4fcf 1f3d 0a1e d13d eaa2 debd
00000210: b2de 0c3d da3a a7bb d2ef 663c 5fae 49bd
00000220: 657e 2dbc 1c7c 7ebd a42f bf3d bac1 91bc
00000230: a686 f2bd 86f8 e03d 6cfe d33b dc0b 1a3d
00000240: 33fb d73d 9b34 913d b2bf 85bd c1c5 8f3b
00000250: 80d0 053b 6049 123d bce0 a8bd e03a 93bb
00000260: b3a0 8bbd 8914 e93d e4b5 803d 8653 20bc
00000270: 0862 813d ac4b 0d3c a1e3 c03c 0448 44bd
00000280: 9136 6e3c b731 98bd c4ef c9bb 16a4 953d
00000290: 661c 803c f91a ebbd 8b0c 8bbd e3dd cabc
000002a0: f62f 943d a41b 0abe b5ce a93d 0ae1 5bbc
000002b0: c926 02be b9ce cdbd 8c93 ec3b 4412 7abe
000002c0: a17e 1e3d 68dd 9bbd 99d1 d23c 60ed 7a3d
000002d0: 0e38 4f3c e241 80bd 97f2 263d 433a 43bd
000002e0: 30bf d13d eb68 d73a fa0d 12be 4818 adbd
000002f0: 8e0b 03bc 65c0 c63d 21ce f5bc d477 f4bd
00000300: 400b 64bd 0142 57bd 44be 4c3c b7eb 01be
00000310: 30f1 d7bc 43d2 a0bd c558 f83c 8b6f 97bd
00000320: cd29 063d 9506 b4bd 8847 d9bd 1a92 9ebd
00000330: a4a8 ca3d b056 3ebd 1dd9 7b3d 9ceb b0bd
00000340: ac58 0bbd c9b1 74bb ca29 a9bc 71ca e3bd
00000350: 382f ffbc e05b c0bd 8e8e b73d ece8 bc3d
00000360: 9c12 16bd 58bb db3d a08d b23d 4ed6 b3bd
00000370: bc5e fdbc 4b94 c9bc e0cc ad3c c592 d0bd
00000380: b0cf f5bc 9892 89bd 5cf1 1ebd f8ed bcbd
00000390: 67dc a1bd 94f3 9bbd 949a 5dbd 16cf 593c
000003a0: 4b7e a0bd 9263 f63d dbd0 ec3d 8660 e73c
000003b0: 234c 8abd 430a 8ebd 8e90 7e3c 2a2a 60bd
000003c0: 60da b9bc beb5 cb3d 44d9 bebd cef2 80bd
000003d0: 6f3b c1bd 03b5 0cbe 155c 76bc 18ee 15be
000003e0: 3c2f c9bd 8a0a 3d3d 8654 b4bd 1fc7 573d
000003f0: 3fd3 d93c d867 b03d 3c97 c93d 44a8 76bd

net.2.bias f4 [32]
-0.06681827 0.1229184 -0.009716347 -0.1062763 0.07648169 0.13055149 -0.070699774 0.034779713
-0.1482152 -0.09830083 -0.012124904 -0.16656432 0.1646271 -0.019433895 -0.0675583 0.11418719
-0.14632249 -0.13219832 0.017338408 0.03411725 -0.043690763 0.15416679 -0.0522767 -0.21792309
-0.029779306 0.0030374094 0.083116785 0.032462113 -0.26185885 -0.031024117 0.054404214 0.043478146
00000000: 04d8 88bd a4bc fb3d 5031 1fbc 64a7 d9bd
00000010: 6fa2 9c3d 4aaf 053e 0bcb 90bd 2c75 0e3d
00000020: bac5 17be f251 c9bd 89a7 46bc d68f 2abe
00000030: 0294 283e d533 9fbc 025c 8abd f9da e93d
00000040: 90d5 15be ff5e 07be 4709 8e3c 88be 0b3d
00000050: 16f5 32bd e6dd 1d3e 1820 56bd 3b27 5fbe
00000060: bbf3 f3bc 460f 473b 2239 aa3d fef6 043d
00000070: 5d12 86be 4a26 febc f4d6 5e3d 2416 323d

net.4.weight f4 [2, 32]
0.13344464 -0.013703589 0.13481197 0.07257002 -0.12553304 -0.11104738 0.04209255 0.070735656
-0.016411226 0.017331224 0.11772167 -0.047970958 -0.072576486 0.00035655726 0.08590189 0.08601491
0.056602288 -0.124615416 0.1654451 -0.09677606 0.09225509 0.03975002 0.16419299 -0.10442678
0.00710957 0.06909235 0.009562492 0.12822826 0.11333201 -0.0023025093 0.05996346 -0.056724112
0.15792572 -0.10238163 0.13582458 0.03854578 0.091176905 -0.11431533 0.044008743 -0.11949338
-0.011692946 0.04711513 -0.059469335 -0.014896608 -0.10294758 0.00025638856 0.07387181 0.041164495
0.056434963 -0.12537955 0.089673415 -0.10541766 -0.04640772 -0.05094872 0.1674407 -0.10481219
0.007175296 -0.15169121 -0.08033944 -0.048613533 0.11299043 -0.002270044 0.04152899 -0.1285509
00000000: b6a5 083e 0585 60bc 260c 0a3e 979f 943d
00000010: bc8b 00be cf6c e3bd 3d69 2c3d dbdd 903d
00000020: d670 86bc 36fa 8d3c 0f18 f13d 327d 44bd
00000030: fba2 94bd 4ef0 ba39 55ed af3d 9628 b03d
00000040: cdd7 673d 5e36 ffbd 716a 293e 8732 c6bd
00000050: 3df0 bc3d ebd0 223d 3522 283e b5dd d5bd
00000060: 65f7 e83b 4a80 8d3d 00ac 1c3c 454e 033e
00000070: 9d1a e83d b2e5 16bb 3f9c 753d 8b57 68bd
00000080: 48b7 213e 76ad d1bd 9915 0b3e 2ee2 1d3d
00000090: f5ba ba3d 281e eabd 8342 343d f2b8 f4bd
000000a0: c593 3fbc cbfb 403d 1e96 73bd e710 74bc
000000b0: 2ed6 d2bd e46b 8639 1b4a 973d 1a9c 283d
000000c0: 5928 673d 7f63 00be b2a6 b73d 37e5 d7bd
000000d0: 0516 3ebd 9baf 50bd 9375 2b3e c6a7 d6bd
000000e0: bf1e eb3b f154 1bbe 0189 a4bd fc1e 47bd
000000f0: 8767 e73d 05c5 14bb 4d1a 2a3d d9a2 03be

net.4.bias f4 [2]
0.036114052 -0.25371462
00000000: 54ec 133d e2e6 81be
