wifi_lstm_auto.pth (torch, 84975 bytes, 8 tensors)

lstm.weight_ih_l0 f4 [256, 5]
000000 14 be 5c 3d 21 b7 81 bd b4 c9 50 b9 50 b6 48 3d
       0.05389221 -0.06333757 -0.00019911566 0.04900199
000010 18 9b ab 3d f3 4e e7 bd ec df 42 bd f6 ec 00 bc
       0.08379191 -0.11294355 -0.04757683 -0.007868996
000020 80 04 51 bd 36 1b d5 3d 78 14 96 3c fd b0 31 3e
       -0.051029682 0.10405581 0.018320307 0.17352672
000030 9c 76 30 be 70 eb 81 bc d3 4f dc 3d 56 b4 76 3e
       -0.17232746 -0.015859336 0.10757413 0.2409223
000040 ef 06 bd bc de da f2 bb d8 9b a6 3d da cd e9 3d
       -0.023074595 -0.007411345 0.081351936 0.11416216
000050 89 90 1d be 4a 16 f7 3d 76 73 fd 3d 12 1a dc bd
       -0.15387167 0.12064798 0.12375538 -0.1074716
000060 91 6d 06 3e b5 5f a5 bc 53 58 96 bc ae 2e 95 3c
       0.13127734 -0.020187238 -0.018352663 0.018210735
000070 02 04 cf bd 92 25 89 bd b4 c3 04 3e a3 e1 f7 3d
       -0.10108186 -0.06696619 0.1296528 0.12103584
000080 11 64 8f bd c0 8e b6 3c 00 6c 3e 3e e5 12 8c be
       -0.07001508 0.022284865 0.18595886 -0.27358165
000090 6f b0 ba 3d 25 2e b9 3d 6c cd 64 3d b3 73 42 3e
       0.09115683 0.090420045 0.055859968 0.18989448
0000a0 0b d5 c4 be ce 9c c8 3d 4c a0 f0 3d 98 fa f8 3c
       -0.3844379 0.09795533 0.11749324 0.03039293
0000b0 d6 0c 50 3d c7 10 9a 3d 1a b5 9a 3d 62 ea fc 3a
       0.05079349 0.07522731 0.07554074 0.0019295926
0000c0 9c 8b 21 3d e7 d2 f4 3d c3 3a bf 3d c8 d4 a5 bc
       0.039439783 0.11954289 0.0933738 -0.020243064
0000d0 08 0f dd 3c 8c 7d 4d 3d 82 56 27 3d ec 8f 44 3d
       0.026984707 0.05016856 0.040853985 0.047988817
0000e0 84 73 eb 3d 24 81 05 be 44 33 c6 bd e4 af 9a 3d
       0.11496642 -0.13037544 -0.09677747 0.0755308
0000f0 6a 9e db bc 04 35 d3 3d f6 25 9c bd 18 8d b1 bd
       -0.026808936 0.10312846 -0.07624428 -0.086694896
000100 8c b4 96 3c 20 73 d8 3d cb b1 a7 bc ad f7 01 bb
       0.018396638 0.10568833 -0.02047052 -0.0019831464
000110 60 95 f6 bb 32 99 59 3f 37 ce f9 3d b7 73 34 bd
       -0.007525131 0.8499938 0.121975355 -0.044055667
000120 c4 d9 f2 3c 40 70 6c 3c 66 da 0e 3e a1 3d ce bd
       0.029644854 0.014431059 0.139505 -0.100703485
000130 2f 15 e5 3d f8 fc 02 be 50 46 13 bc 32 10 a6 3c
       0.11185681 -0.12791812 -0.008988932 0.020271394
000140 2d 9a 35 be 3a 30 f7 bd 09 d0 a3 bd 78 a8 8b 3d
       -0.17734595 -0.12069745 -0.07998664 0.06819242
000150 7a c1 ef 3d 17 0e 6f 3e 9a d5 3d ba ac b9 ac bc
       0.117068246 0.23345219 -0.0007241607 -0.021084629
000160 70 9f d0 3c ee cf 89 be 62 94 a6 bd eb d4 77 bb
       0.02546665 -0.2691645 -0.081337705 -0.0037816118
000170 e5 aa 10 3c f8 af d4 3c 38 00 e9 3c 36 60 b0 b9
       0.008829807 0.025962815 0.028442487 -0.0003364102
000180 02 41 a1 3d a4 0e 57 3c 4c d6 3c bd 66 82 54 bd
       0.078737274 0.013126049 -0.046102807 -0.05188217
000190 03 fa 3b be a7 3e f7 3d e5 2b d6 bd 9a 21 c3 bd
       -0.1835709 0.12072497 -0.10457591 -0.09527893
0001a0 be 08 00 bc 94 eb d2 bb 8a 1f 84 bd b9 09 2c bd
       -0.007814584 -0.0064367745 -0.06451328 -0.04200146
0001b0 bc 51 88 3d 1b 06 ab 3d 1f 22 02 3e 97 bb 41 3e
       0.066562146 0.08350774 0.12708329 0.18919216
0001c0 cd 7f c6 bd f0 3a a7 bc 47 90 f3 3d 47 3a b0 3e
       -0.09692345 -0.020413846 0.11892753 0.34419462
0001d0 df a7 d6 bc e2 e9 01 3d c0 db 1b bb cd c7 e2 bd
       -0.026203094 0.03171719 -0.0023782104 -0.11073265
0001e0 5f 30 00 be b8 f9 4e 3d dd ad e4 3d d8 9d bf bc
       -0.12518452 0.05053112 0.11165974 -0.023390695
0001f0 0a 2a 56 3e 03 b4 76 3d 32 83 13 3e e9 e0 b0 bc
       0.20914474 0.060230266 0.14405516 -0.02159162
000200 dc 14 37 bd e2 3a 8b bd 62 96 14 be 2a 10 ad 3c
       -0.044697627 -0.067983404 -0.14510491 0.021125872
000210 1e 92 37 3d 04 15 ce bd 3a 0a 92 bd c8 73 99 3d
       0.044817083 -0.10062602 -0.07130857 0.07492787
000220 1f 07 3e 3e d7 17 02 be a0 8f c8 bd eb b0 cc 3d
       0.18557404 -0.12704407 -0.09793019 0.09994682
000230 6d 3b 37 3e f6 36 62 3d d8 21 46 ba a8 c9 db bc
       0.17893763 0.055228196 -0.00075581437 -0.026829556
000240 6c 8e 75 3d 39 3f b3 3d bf 0f 44 3d 84 57 0e 3e
       0.059950277 0.08752293 0.04786658 0.13900572
000250 b8 06 50 3d 79 bc 54 3e 3f 99 6d bd 31 6a 8e 3d
       0.050787657 0.20775022 -0.058007475 0.06953848
000260 9a c1 f1 3d 24 cc 16 bd 0b 3a f1 3d 3e fd 8b be
       0.11804505 -0.036815777 0.11778649 -0.27341646
000270 5a d3 f9 bc 06 e5 4f bd 26 1f ac bd eb 70 c5 be
       -0.030496288 -0.050755523 -0.084043786 -0.38562712
000280 c3 42 37 3f bf 58 16 3c 22 a9 8a 3d 20 27 82 3b
       0.71586245 0.009176432 0.06770541 0.003971949
000290 b4 6f b3 3f 11 2b e8 3e dc 16 3c bc 0e fa 00 bd
       1.4018464 0.45345357 -0.0114800595 -0.03148847
0002a0 0a 82 b3 3d 32 be ba bd ce c3 88 bd 55 05 ae 3c
       0.08765037 -0.09118308 -0.06677972 0.021242777
0002b0 c2 9d 6b bd a0 17 7e 3d 0f 55 2b 3e b0 a5 2f 3d
       -0.057523496 0.06203425 0.16731666 0.04288262
0002c0 49 b3 c4 3d c3 46 16 bd 50 9e b6 3c 3c 47 8b bd
       0.096045084 -0.036688577 0.022292286 -0.06800696
0002d0 9f ea d0 3e d9 9e dc bd 80 62 11 3d 6c 1e 8c bd
       0.40804002 -0.10772485 0.035494328 -0.0684174
0002e0 1c 84 0a be 29 13 fa 3d b7 57 62 3d 92 bb 14 bc
       -0.13526958 0.12210686 0.055259433 -0.009077923
0002f0 1a 6b ad 3d 63 1b 66 be e1 f6 be bd 9f 1f 95 3d
       0.084676936 -0.22471385 -0.09324432 0.07281422
000300 0b 06 33 3d b8 eb 86 bc ad 8d b4 3c 21 25 8c 3e
       0.043706935 -0.016469821 0.022040213 0.27372077
000310 ed fb 98 3d cd 32 29 3d c6 40 88 bd 17 8c de 3d
       0.07469926 0.041308213 -0.066529796 0.10866564
000320 b1 a5 12 be 4f e1 b8 bc b7 49 9e bd ce a7 c4 bd
       -0.14321019 -0.022568373 -0.07728904 -0.09602319
000330 34 71 c9 3d b2 20 17 be 23 ce 57 3d f4 30 1b 3d
       0.09836045 -0.14758566 0.05268682 0.037888482
000340 0c 25 0a bd ce 2e 7f 3d 04 98 a6 3d 35 40 62 bb
       -0.033726737 0.062300496 0.081344634 -0.0034523134
000350 a9 f4 07 3d 74 c0 09 bd 54 43 c1 bd 1d 51 68 bc
       0.03319231 -0.033630803 -0.0943667 -0.014179495
000360 10 a6 5d 3d 35 9b e6 3c 44 f7 dd 3d 1b 65 09 be
       0.054113448 0.02815018 0.10838178 -0.13417475
000370 bb 34 ab 3c a0 75 20 3e 81 e7 16 ba 9c 41 fb bd
       0.020899167 0.1566987 -0.00057565427 -0.12268373
000380 4a 98 b7 3c 47 a1 12 be 53 44 da 3d 6c 89 13 3e
       0.022411484 -0.14319335 0.10657563 0.14407891
000390 92 1b c0 3d 1c a0 6d 3a 20 d7 39 3e 4c 38 94 3d
       0.093802586 0.00090646907 0.1814847 0.072373
0003a0 cf 28 45 3e a0 3a 88 bd d1 1e 44 be 84 78 af 3e
       0.19253848 -0.06651807 -0.1915238 0.34271634
0003b0 bb 69 8c bd 5a af a1 bd ac 92 9c 3d 93 b3 25 3d
       -0.06856104 -0.07894774 0.07645163 0.04045446
0003c0 86 57 91 be 02 2a 3d 3d 6e 4c 87 3d 46 75 a9 bd
       -0.28387088 0.04618264 0.06606375 -0.08274321
0003d0 28 8b d6 bc 96 f6 1f be 94 26 8e 3d 32 32 5a 3c
       -0.026189402 -0.15621409 0.06940952 0.013317632
0003e0 d6 e4 93 bd fa f9 83 bd 7b 61 55 3e 3a c4 a1 bd
       -0.07221381 -0.064441636 0.20837967 -0.07898755
0003f0 c7 e5 7d bd b0 51 0d 3d d0 04 19 bd a1 3a 58 bc
       -0.06198671 0.03450173 -0.037358105 -0.013197572

lstm.weight_hh_l0 f4 [256, 64]
000000 86 31 8c bd 3d 7d 4f bd 5b 5c 35 3e 9a 3f 2a be
       -0.06845383 -0.050656546 0.17711012 -0.16625825
000010 90 e4 1b 3d 5b 58 0b 3d fd 61 7f bc d3 0f ee 3d
       0.03805977 0.03401981 -0.015587327 0.11624112
000020 d3 34 87 be 23 e0 f6 bc 48 9e 3b 3d 51 70 6b 3d
       -0.2640749 -0.030136174 0.045805246 0.05748016
000030 6e af e6 bd 64 f2 36 bd b2 2e a0 bd 6d 33 ca 3c
       -0.11263929 -0.044664755 -0.078214064 0.024682725
000040 d2 cf 95 bd a9 5c e7 bd 34 ec b0 3d f9 8a 0e 3d
       -0.07315029 -0.112969704 0.08638802 0.034800503
000050 d2 3c 1a be e4 dd e5 3d 6e a6 b4 bd 3e 2e eb bb
       -0.15062264 0.11223963 -0.088208064 -0.0071771434
000060 4d 8a 14 3e 15 5f 17 3d 62 84 c5 3c 29 8f 18 3c
       0.14505883 0.03695591 0.024110977 0.009311476
000070 af 43 ec 3d e8 f7 57 be e0 63 c6 bd 2c dc d9 bc
       0.11536347 -0.21090662 -0.096870184 -0.026594244
000080 70 4d 9d 3d ae fa 06 3e f4 2f 82 3d 29 37 5f 3e
       0.07680786 0.13181564 0.063568026 0.21798386
000090 1c 22 c8 3c 1d 40 fc 3d a2 19 9f 3d 13 68 c8 3d
       0.024430327 0.12316916 0.07768561 0.097854756
0000a0 16 70 2b 3e ea da 2b 3d af 15 21 3e 46 30 d8 bd
       0.16741976 0.04195682 0.15730928 -0.105560824
0000b0 fc b3 30 ba 6a 23 1e be 88 c5 17 3e 46 30 0c be
       -0.0006740687 -0.15443197 0.14821446 -0.1369029
0000c0 62 2d da bd bb e0 98 bc bb e4 80 3d 05 9d ba 3d
       -0.10653187 -0.018661847 0.06293627 0.0911198
0000d0 f4 68 51 3d 93 f0 c8 3d f3 14 00 be 6d d5 69 bd
       0.05112548 0.09811511 -0.12507991 -0.057088304
0000e0 a8 35 a7 3d 56 d0 24 be dd 37 6c bd 8d c6 71 3d
       0.08164531 -0.16095099 -0.057670463 0.059027243
0000f0 54 e4 f4 bd 38 45 f3 bd f5 23 e6 bd ed cb 42 be
       -0.11957613 -0.11878437 -0.11237327 -0.19023104
000100 8b 48 9b bd c5 59 44 3e d2 59 21 3d 7d c5 49 bd
       -0.07582196 0.1917487 0.0393923 -0.049260605
000110 f4 45 45 be 47 63 b0 3d ba 85 06 3d d8 51 9e 3d
       -0.19264966 0.08612686 0.032842375 0.07730454
000120 54 e7 07 3e 4f e6 92 bd 10 0b e1 3b 2c bf 7f 3d
       0.13271838 -0.07172834 0.006867774 0.062438175
000130 ca 67 c1 3c a2 ef b0 3e 89 4e b9 bc 1b 38 70 3d
       0.02360906 0.34557825 -0.022620456 0.058647256
000140 5c 89 8e 3d 87 57 4a be a7 74 bd 3c a4 fd 03 3e
       0.06959793 -0.19759952 0.023126913 0.12889725
000150 a9 05 d5 3e 5c 4d 49 ba b6 1c 0b 3e 66 5e 89 bc
       0.4160588 -0.0007679069 0.13585171 -0.016768645
000160 c2 af 0d 3e 5a 51 2e 3e 09 e5 ca bc 78 ef b0 bc
       0.13836578 0.1702322 -0.024767416 -0.021598563
000170 54 dc a9 3d b0 70 11 3d 66 b2 36 be a4 43 13 3e
       0.082939774 0.035507858 -0.17841491 0.14381272
000180 be b2 39 bf 5b c9 e0 be f4 d3 88 3c f5 63 91 be
       -0.72538364 -0.43903622 0.01670263 -0.28396574
000190 ae b7 45 3d b2 c6 95 bd d6 c4 3e be b5 22 f2 bd
       0.048270874 -0.07313289 -0.18629774 -0.11823026
0001a0 c7 d3 82 be 44 d1 81 be d3 12 b0 3d 0a 8e 08 3d
       -0.25552198 -0.2535497 0.085973404 0.033338584
0001b0 4a 04 76 bc 31 2f 7b 3d 46 b0 21 be 67 fe 55 3e
       -0.015015671 0.061324302 -0.15789899 0.20897828
0001c0 d6 a8 de 3d 2c cb 2b be 3d a5 be 3d 40 43 be 3d
       0.10872047 -0.16776723 0.093088605 0.09290171
0001d0 f8 b3 30 3e 1a 79 86 bc 75 18 71 3e 65 1c a8 3e
       0.17256153 -0.016415168 0.23544486 0.32834163
0001e0 27 b4 2d 3c 6e 0a 52 3d 74 c5 0e 3e 8c 98 17 3d
       0.010602034 0.051279478 0.1394251 0.037010714
0001f0 6f 2b 26 3e a5 8b 2d bc 14 4a 4b 3e c0 cd 64 3d
       0.16227506 -0.010592376 0.19852477 0.05586028
000200 54 f3 3b bd 25 21 36 bd 25 ad 5d bd df d7 30 3c
       -0.045886353 -0.044465203 -0.0541202 0.010793655
000210 e0 79 9d 3d 66 06 84 3d 09 9c 98 bd e9 50 f6 3c
       0.076892614 0.06446533 -0.07451636 0.030067878
000220 fe f9 69 3c 27 e4 e7 3c c4 ad b4 3d 2a 21 11 bd
       0.014280794 0.028307034 0.08822206 -0.03543202
000230 64 f6 c9 bd ab 1a a6 bc 8c 9d 40 3d 1d 0d bb bc
       -0.098614484 -0.020276388 0.04702525 -0.022833401
000240 e0 b8 51 bd 32 87 c2 bd 71 96 ad bc 62 bd 11 bd
       -0.0512017 -0.09498443 -0.0211899 -0.035581
000250 30 0a 30 bd 92 81 4f 3d 9f b1 22 bd f4 fd 83 bd
       -0.042978466 0.050660677 -0.039720174 -0.06444922
000260 c3 39 72 bc 7f ec ce 39 a5 66 5e 3d 75 bf b8 bd
       -0.014784279 0.00039467585 0.05429711 -0.090208925
000270 ef 20 bf bd f7 a2 3a 3d 60 15 a0 bd e7 69 a6 3c
       -0.093324535 0.04556557 -0.07816577 0.02031417
000280 62 36 98 bd 02 28 e5 3d 2f 2d 60 bc ba 7f b7 3d
       -0.07432248 0.111892715 -0.013682648 0.08959909
000290 8e 07 29 3d 17 b6 30 bd fe be dd bd 60 16 aa bd
       0.04126697 -0.043142404 -0.108274445 -0.08305049
0002a0 85 5d e2 3d 47 a3 dd 3d d1 44 7a bd 47 54 bb bd
       0.11052994 0.10822158 -0.061100785 -0.09146934
0002b0 c5 61 77 bc 27 41 90 3b 41 91 81 3d 9e 53 df 3d
       -0.015098994 0.004402298 0.06326533 0.109046206
0002c0 cf 45 df 3d da 0a 89 3d 6a 20 7f bd 5e f0 c2 3c
       0.10901987 0.06691523 -0.06228677 0.023796257
0002d0 fa 9b 3f bd bd bf 8a bc c9 ef 59 3d 72 de 7f 3d
       -0.04677961 -0.016937131 0.053207193 0.062468
0002e0 b6 06 d6 bd 3c dc ee bd 1d dd e2 3d ac 58 9e bd
       -0.10450499 -0.116631 0.1107733 -0.077317566
0002f0 44 6f c0 bd 52 65 dd bd 42 79 a9 bd af 2e 2b bd
       -0.09396222 -0.10810341 -0.08275081 -0.041792568
000300 24 ef 02 be a5 0a 05 be 68 83 94 3d 35 e0 78 3c
       -0.12786537 -0.12992342 0.07251626 0.015190174
000310 90 dc fb 3e 02 6b b1 bc ca da 9d bd ea b5 c8 be
       0.49191713 -0.02165747 -0.07707746 -0.3920129
000320 85 41 12 bd 29 f2 94 bd 45 5b a9 3b 08 eb e3 bc
       -0.035707016 -0.07272751 0.005168351 -0.027822033
000330 5b 31 16 bd 5a dd a0 be 13 9f 88 3d 6f 0b 13 bd
       -0.036668163 -0.31418878 0.06670966 -0.035899576
000340 57 0c 74 bd 1e 16 c2 3d bf 11 ad 3d 0e 22 0d bd
       -0.05958208 0.09476875 0.084506504 -0.034456305
000350 01 00 85 bd 15 6c 5e 3e 7a 9c 54 3d ec 5e 6d 3e
       -0.06494141 0.21720918 0.05190704 0.23180741
000360 e3 e3 d4 bd 58 c1 3e 3d a5 b1 ee 3d 49 df 07 be
       -0.103950284 0.046571106 0.11654977 -0.1326877
000370 c8 22 ad bb 87 00 4b bd 6d 4c 9f 3d c4 89 b0 be
       -0.0052836873 -0.04956105 0.07778249 -0.34480107
000380 78 fd b4 3e e5 d8 e0 3d 85 28 e0 bb 6f c8 bb 3d
       0.3534963 0.10978869 -0.006840768 0.09169089
000390 49 9e a4 bd 25 72 f8 3d e8 f1 bc ba 5b 23 f6 bd
       -0.08038003 0.12131146 -0.0014415355 -0.12018462
0003a0 03 93 4c 3e 6b 39 b7 bd da 99 4b 3d 40 9a 51 bd
       0.19977956 -0.089464985 0.04970727 -0.051172495
0003b0 5c 8f 27 bc 68 57 d3 bc 8c 18 be 3e 69 f3 f0 bc
       -0.010227051 -0.025798514 0.37128103 -0.029412942
0003c0 07 9e 7b be e1 9b 54 bd f3 fc 11 bd fc 50 24 bc
       -0.24572001 -0.05190647 -0.03564162 -0.010029074
0003d0 58 c3 27 3e 1c c6 1f 3e b6 f3 96 be 35 96 ba 3d
       0.16383111 0.15602916 -0.29482812 0.09110681
0003e0 a0 48 c1 ba 81 23 cf 3d bc ed 12 be 56 3b e0 3c
       -0.0014746375 0.10114194 -0.14348501 0.027372044
0003f0 61 80 f2 3d 1c f6 80 bd 73 54 1e be 95 34 9e bd
       0.118408926 -0.06296942 -0.15461902 -0.07724873

lstm.bias_ih_l0 f4 [256]
000000 94 61 3b 3c e1 92 bd 3d 32 9b a9 3d be b3 c4 bc
       0.011436839 0.092565306 0.08281554 -0.024011489
000010 58 94 97 bd 79 36 b1 3c 00 c7 11 bd a1 bc b8 3c
       -0.07401341 0.02163242 -0.03559017 0.022550883
000020 35 79 a9 3d 24 d6 86 bc 60 dd 28 bd 05 dc 28 bd
       0.082750715 -0.016459532 -0.041226745 -0.041225452
000030 61 82 5e 3d 75 33 3c 3d d0 7a 27 3e e9 68 20 bd
       0.054323558 0.04594751 0.16355443 -0.03916255
000040 68 a5 a4 bd 0f 7f 7b 3e 70 33 cc 3d 1b a5 66 bd
       -0.08039361 0.24560188 0.099707484 -0.0563098
000050 ea 37 22 bd e4 cd dd bd 8b b8 5e bd a9 98 60 bd
       -0.039604105 -0.10830286 -0.054375213 -0.054833088
000060 4c 50 b7 bd a8 9d ef 3d dd 8f 03 be 82 45 0a 3d
       -0.08950862 0.116999924 -0.12847848 0.033757694
000070 65 ce 16 bc a8 9b 33 3d b7 1c 3a be 4d 39 a6 3d
       -0.009204482 0.043849617 -0.18175016 0.08116398
000080 4c c8 e6 3d 5e 37 05 bd 3d 11 b3 3d a3 fd 27 3e
       0.11268672 -0.032523505 0.08743522 0.16405348
000090 1f e3 e8 3d 85 57 22 be d7 53 dd bd a9 03 dc bd
       0.11371445 -0.15853699 -0.10807007 -0.107428856
0000a0 8a 1e 56 3d b9 ff d5 bb e2 cb 2c 3e f5 b2 1f 3d
       0.052275218 -0.0065307287 0.1687465 0.038989026
0000b0 5c e0 27 3d 41 a1 8b bd 37 3e 13 bd 69 41 5e 3d
       0.04098545 -0.06817866 -0.035948005 0.0542616
0000c0 92 b4 88 3d ac 4a d8 bc e3 38 03 3c 69 6d a1 3d
       0.06675066 -0.026402794 0.008009168 0.078821965
0000d0 0d 6a ab bb 45 1d 2f bd c1 83 05 bd 4d 01 4e 3d
       -0.005231148 -0.042752523 -0.032596353 0.05029421
0000e0 44 59 51 3d 30 67 4d bd 44 f9 3c bd 97 07 87 3d
       0.05111052 -0.050147235 -0.046136156 0.065932445
0000f0 f0 8d 9f bc c0 c4 bc 3d 21 3e 1d bd ab c5 82 3d
       -0.01947686 0.092172146 -0.03838933 0.063853584
000100 43 54 e3 bd bf 4d 01 3e 52 4a de bc 98 0b 3b 3e
       -0.11100056 0.12627314 -0.027135048 0.18266141
000110 5a d3 d2 bd d0 78 d3 bd d2 f3 0e 3e 72 91 c0 3c
       -0.10294218 -0.103257775 0.13960198 0.023506854
000120 78 31 15 3a b9 93 15 bd e4 ae 38 3e 68 d6 03 3e
       0.00056912703 -0.036517832 0.18035465 0.12874758
000130 0e d6 a4 3d 07 86 db bc 97 a7 8b 3d ae 74 9d bc
       0.0804864 -0.026797308 0.068190746 -0.019220676
000140 a3 0e 87 3d 28 05 c5 3c ca 5e 09 3d 41 25 2f 3d
       0.065945886 0.02405031 0.033537664 0.042760137
000150 49 3c 99 3d 78 51 67 bc 6a 61 41 3e 9b 40 b0 3d
       0.074822016 -0.014118545 0.18884817 0.086060725
000160 02 03 a0 bc 81 46 81 3b 2d 6d 00 be b9 b1 6f bc
       -0.019532684 0.0039451723 -0.12541647 -0.014629775
000170 25 3f b1 bc bd 3a 47 3e 71 12 ff 3d e9 2d 7a 3e
       -0.021636555 0.19456 0.12454689 0.24431576
000180 c6 49 7e 3d 95 8a 5a bd 9e 78 86 3d 63 58 4b bd
       0.062082075 -0.05335482 0.06565975 -0.04964484
000190 19 45 1f 3d aa 4a 01 bd 61 c8 42 bd b2 b4 01 3d
       0.038884256 -0.031565346 -0.047554377 0.031666465
0001a0 a5 ac e9 3c 4a b5 a6 bd d6 1f ab 3a 7b 92 16 3d
       0.028524706 -0.08140047 0.0013055752 0.03676079
0001b0 c3 e2 a2 3d 31 92 e2 bd 10 2d 80 3d a9 0a 09 3e
       0.079534076 -0.1106304 0.06258595 0.13382973
0001c0 39 5d 74 3e 08 21 5b bc 56 70 a1 3d ef 99 e3 bc
       0.23863687 -0.0133745745 0.078827545 -0.027783362
0001d0 65 f6 d0 bd 56 10 f0 bd 26 69 d1 3d 7e 82 db bd
       -0.10203246 -0.11721866 0.102251336 -0.10718249
0001e0 57 04 9b ba 1f 1f 2f bc 87 37 03 3e be 99 b0 bd
       -0.0011826855 -0.010688572 0.12814151 -0.08623074
0001f0 80 71 93 3c 98 c4 8c 3d 8f 27 04 3e 47 c4 23 3c
       0.017998457 0.06873435 0.12905715 0.009995527
000200 62 80 c8 3c e1 04 ee 3d 2c d8 79 3d d4 af 1f 3d
       0.02447528 0.11622024 0.060997173 0.038986042
000210 e4 ec be 3c ce 48 ba 3d 48 43 ae 3c 76 51 7d 3d
       0.023306318 0.09095918 0.021272317 0.061845265
000220 b4 8b cc 3d b8 c8 b2 3d 74 01 2d be bb a6 07 3d
       0.09987584 0.0872969 -0.16895086 0.03311799
000230 a7 8f 5b 3d 69 b6 09 be 71 f0 8e 38 5d 34 d0 bd
       0.053603794 -0.1344849 6.815873e-05 -0.101662375
000240 11 30 0d be 54 26 84 bd 80 d3 0e 3d be 8b 0c bd
       -0.13787867 -0.06452623 0.03486967 -0.034312956
000250 38 5c 4f bc aa c8 45 3b d3 27 c1 bc 31 d9 a8 bd
       -0.012656264 0.003017942 -0.02357856 -0.08244551
000260 8f 57 e4 3d 7e 7a 7f bd 87 f3 c8 3c b1 e0 cc 3c
       0.11149513 -0.062372677 0.024530185 0.025009485
000270 7c 5d f8 3c ef a4 42 bd 33 19 d5 3d 6b 37 f6 bc
       0.030318014 -0.047520574 0.10405197 -0.030055722
000280 92 0a a9 3d 06 96 05 3e 6e 7a af bc 97 5e 28 3c
       0.08253969 0.1304551 -0.021420684 0.010276458
000290 90 4f 83 3d bc 97 3c 3d 8a 80 46 bb 14 88 b1 3d
       0.0641166 0.046043143 -0.0030289018 0.08668533
0002a0 60 50 28 3d a7 c4 32 3c 4c 79 d0 3c f9 6e ea bd
       0.041092277 0.010911143 0.025448464 -0.114469476
0002b0 a9 93 cc 3d ee 11 c7 3c f7 d2 43 3d da 8f e6 bd
       0.099891014 0.024300542 0.047808614 -0.11257906
0002c0 3b 02 51 bd 16 83 34 3e 7e b0 8e 3d 76 00 06 3e
       -0.051027518 0.1762813 0.06967257 0.13086113
0002d0 11 31 14 bd 03 c8 02 bd f4 7c 06 3d d4 8c 38 bd
       -0.036179606 -0.031929027 0.03283401 -0.04505618
0002e0 d1 17 19 3e c8 eb fe bd 38 e1 f2 bc 6f 52 01 ba
       0.14950491 -0.124473155 -0.029648408 -0.0004933243
0002f0 a1 93 dc bd 26 f9 15 be a2 ee d5 3a ce 8c 06 bd
       -0.107703455 -0.14645824 0.0016321728 -0.032849126
000300 83 3e 59 bd 9d bc 41 3d a8 e4 c8 3c 0e 8f 98 3d
       -0.05303813 0.047299016 0.024523094 0.074491605
000310 cc 09 2b be 0c f7 c6 bb 7c 9d 8b bd d4 9d e1 bd
       -0.16702956 -0.0060719308 -0.06817147 -0.110164315
000320 a6 3d 4d bc 9a 31 41 3d 84 6e 83 3d 46 67 fc 3c
       -0.012526905 0.047166444 0.064175636 0.030810963
000330 7c 79 3f bd 7d d8 45 bd 03 e2 a8 bc 6f 11 10 be
       -0.046746716 -0.048302162 -0.020615583 -0.1406915
000340 20 32 18 3e 5e 01 05 3e 72 6d 57 bd 63 97 d8 bc
       0.14862871 0.12988803 -0.05259461 -0.026439374
000350 4b fa 95 3d f3 01 d5 bd 82 e8 e4 3d 7d dc 15 bc
       0.0732313 -0.104007624 0.1117716 -0.009146807
000360 e0 56 95 bd d1 e2 6e 3d 2d f1 0c bd ee 8f 54 3e
       -0.07291961 0.058321778 -0.03440969 0.2075803
000370 0a 03 7f bd b5 be 0d bd 64 f8 75 bd 77 df 10 3e
       -0.062258758 -0.0346057 -0.060051337 0.14147745
000380 3b dc c5 3c e3 0a 8a 3c 25 10 d7 3d 84 df 30 3c
       0.024152866 0.016850894 0.10501126 0.010795478
000390 a4 eb 92 bd 4a 12 ea bd 3a 80 69 3c 82 da f6 3c
       -0.07173851 -0.114292696 0.014251763 0.03013349
0003a0 0b 05 1c 3e a0 13 27 3e c8 42 b5 bd 08 4b 04 3d
       0.15236299 0.1631608 -0.08850628 0.032298118
0003b0 c7 85 8b 3d e0 97 11 3d ed 34 5e 3e 97 85 9a 3d
       0.068126254 0.03554523 0.21699877 0.075450115
0003c0 0f e1 26 3e da f2 72 3b fe f1 90 bc 35 f8 bf bc
       0.1629679 0.003707102 -0.017693516 -0.023433784
0003d0 53 3d 5b bd 20 4b 20 3d a7 ff 50 bd 62 ea e9 bb
       -0.05352528 0.039134145 -0.05102506 -0.0071385363
0003e0 9d 4f e6 3d 05 41 2d 3e 50 32 bc 3d 2b 3a ae 3d
       0.11245654 0.16919334 0.09189284 0.085071884
0003f0 51 e3 81 3d 1a f6 08 3e 3b fe f2 3c 69 a3 e3 bc
       0.06342185 0.1337513 0.029662242 -0.027787881

lstm.bias_hh_l0 f4 [256]
000000 c4 71 dd 3d 56 f2 72 bd e8 c8 bd 3a 26 78 bb 3c
       0.10812715 -0.05931314 0.001447943 0.02288444
000010 51 84 be bc 51 41 aa bd 86 64 12 3c 59 b8 ff 3c
       -0.023256453 -0.08313239 0.0089350995 0.031215834
000020 51 52 a6 3d 8c 2a dd bc 7a bf 25 3e 61 80 ad bc
       0.08121169 -0.026997827 0.16186324 -0.02117938
000030 c8 80 05 be 79 8d 23 3e dc 18 2f 3e 51 7b 59 bd
       -0.13037407 0.15971936 0.17099327 -0.05309612
000040 5b d5 61 3d db 4c 8c 3d b6 5d 1f 3d d4 18 ce 3c
       0.055135112 0.068505965 0.03890773 0.025158323
000050 4e 85 c7 3d 0c df bf 3d 35 28 2e 3e 89 4d ac bc
       0.09742223 0.09368715 0.17007525 -0.021033065
000060 15 0b 0b be 77 62 7f bd cf 6f a8 3b 82 c8 43 bd
       -0.13578446 -0.062349763 0.0051402817 -0.04779864
000070 fe 8d 54 bc d6 16 37 be 0b 2e b2 bd 4d 24 0f bc
       -0.012973307 -0.17879805 -0.08700188 -0.008736682
000080 13 10 d1 3d b7 5a d5 bd 0f c9 f4 3d 30 74 f7 3d
       0.10208144 -0.10417693 0.119524114 0.12082708
000090 53 28 35 bd 89 ee 22 be 3d d1 b5 bd a3 20 67 3d
       -0.04422791 -0.15911306 -0.088778 0.05642761
0000a0 ff b1 e2 bd a3 6d b3 bd 3b bb ed 3d 83 8a 08 3d
       -0.11069106 -0.08761146 0.11607977 0.03333522
0000b0 e4 a7 14 bd 36 fd 96 3a a8 05 56 be 00 a0 d4 3c
       -0.036292925 0.0011519555 -0.20900595 0.0259552
0000c0 2c 1b cb bd 38 a2 8e 3c a3 39 f3 3d e8 d5 4a 3d
       -0.09917292 0.017411336 0.11876228 0.049520403
0000d0 e3 6b 98 3c eb 69 f4 3d 09 ef 9a 3d 4a 99 e1 bd
       0.018606132 0.11934265 0.075651236 -0.11015566
0000e0 08 bf d2 3d bf d4 db bd 3d 5d ce bd 99 e4 26 3e
       0.102903426 -0.107339375 -0.100763775 0.1629814
0000f0 19 a6 9d bd 1f 67 87 3c 3c b2 de 3d 6f 2e 85 3b
       -0.07697696 0.016528664 0.10873839 0.004064373
000100 43 b4 e2 bd 93 0f d1 bc 92 91 ca 3d 76 52 2a 3d
       -0.110695384 -0.025520122 0.098910466 0.041582547
000110 f8 19 f5 3d 76 46 b0 bd 7f df 19 3e 1a 6b 05 3e
       0.11967844 -0.08607189 0.15026663 0.13029137
000120 ff 32 c3 3d 17 d1 8a bd 63 55 2a 3c aa 60 b4 3d
       0.09531211 -0.06778162 0.010396334 0.088075
000130 ac e7 9e bd 5f 3d df 3d d5 2f aa bd 3e 62 ed bc
       -0.07759032 0.109003775 -0.083099045 -0.02897751
000140 01 b9 f5 bc 6c 4d 57 bc fe eb ab 3d fb d6 b1 3d
       -0.029995443 -0.013141017 0.08394621 0.086835824
000150 58 03 1b 3e 21 7f ff bd 62 42 54 bc 82 1d 1c bd
       0.15137994 -0.1247542 -0.01295528 -0.03811408
000160 7e 01 27 bd 4c 04 f7 3d f1 b9 db bd 37 1c e1 3d
       -0.040772907 0.120613664 -0.10728825 0.1099171
000170 03 4c 6d bd e6 3f 15 3e f4 12 e2 3d fa 9b 86 3d
       -0.05793382 0.14575157 0.11038771 0.06572719
000180 3f e0 98 3c 1d 02 6d 3d 9f 1e f3 3d be 61 23 3c
       0.018661616 0.057863344 0.11871075 0.009972034
000190 bc 13 c5 bd fd c5 a3 bd 63 ca 34 bd 23 6b c9 3d
       -0.09622905 -0.07996748 -0.044138324 0.09834888
0001a0 3f 69 9e 3d b3 37 1a bd de 18 6b 3a 3e 3b 2a 3e
       0.07734918 -0.037650775 0.0008968244 0.16624162
0001b0 72 33 7d bd e7 0e 07 3e 90 05 a9 3d 0e 6c 2e 3c
       -0.06181664 0.13189279 0.08253014 0.010645879
0001c0 e4 d6 6c 3e 97 37 c1 3d 8b 63 19 3e 3c 89 1b bc
       0.2312885 0.09434431 0.14979379 -0.009493168
0001d0 06 af 6e bd 5d fa f3 bd cc 61 e6 bd 64 f0 a7 3d
       -0.058272384 -0.119129874 -0.11249122 0.08200148
0001e0 b9 03 54 bd a6 16 e6 bc 6a 34 3e bd 2a ec e4 3c
       -0.051761363 -0.028086971 -0.046436705 0.027944643
0001f0 f1 37 36 3e 80 f6 18 3e e4 a7 33 3e 82 db e5 3d
       0.17794777 0.14937782 0.17544514 0.112235084
000200 fe e6 45 bc 73 86 49 3d 97 bc 87 3d 79 ea b4 3c
       -0.012078999 0.049200486 0.066277675 0.022084462
000210 2d a9 f5 bd 83 c3 f4 bc ce 52 c2 3d 3c c7 b1 3d
       -0.11995158 -0.029878384 0.0948845 0.08680579
000220 9d f1 e4 bc 62 6c 6c 3d 6c 0e ed bd 55 6d 0c 3d
       -0.027947241 0.05772055 -0.115750164 0.034283955
000230 2b 38 cc 3d ee eb bf 3d db c7 da 3d 89 79 c6 bc
       0.09971651 0.09371172 0.10682651 -0.024227874
000240 bd c8 3d bd 95 b0 42 bd ed 55 88 bd 40 07 e5 3c
       -0.046334017 -0.047531683 -0.06657014 0.027957559
000250 88 58 83 3d d4 82 c5 bd 6c cb 48 3c 93 0c 81 3c
       0.0641337 -0.09644094 0.012255531 0.015753066
000260 01 cc 94 bd c4 85 ac 3d 7f 6c 4b ba 5e c3 96 bd
       -0.07265473 0.08423951 -0.00077600026 -0.07361482
000270 12 6c 92 bd 17 5a 3a bc c6 a2 97 3c b0 41 b3 3d
       -0.07149519 -0.011374018 0.018510234 0.08752763
000280 7e 96 8b bd 8b 57 09 3d fc cf 8f 3d d0 f9 db 3b
       -0.068158135 0.033530753 0.07022092 0.0067131296
000290 ea d0 cf 3d 18 86 5c bd 8a 63 c3 3d 2e fb 46 3e
       0.10147269 -0.05383882 0.0954047 0.19431755
0002a0 42 de cb 3d 78 da b8 3d 55 b3 99 bd ef 9c 93 bd
       0.09954502 0.090260446 -0.07504908 -0.07207667
0002b0 f3 2d 8b 3d 1e a9 a7 bd 95 48 da bd 24 f6 d6 bd
       0.067958735 -0.081865534 -0.10658375 -0.10496166
0002c0 cb ee ce 3d 8c 81 1a 3e 98 35 1c 3d 98 c1 fe 3d
       0.1010414 0.1508848 0.03813705 0.12439269
0002d0 3d 0b b5 bc 69 3a 31 3c ee f7 ad 3d ee 2e 18 be
       -0.022100085 0.010817149 0.084945545 -0.14861652
0002e0 aa ba 9d 3d c9 82 d5 bc c7 15 f8 bd 2a 47 d4 bd
       0.07701619 -0.02606334 -0.12113529 -0.10365136
0002f0 7d 09 9b bd 06 2c c8 bd 39 8b 84 3d 34 c2 88 3d
       -0.07570169 -0.09774022 0.06471867 0.06677666
000300 fe ab db 3d 22 88 f6 3c c7 55 42 bd b7 49 43 3e
       0.10726164 0.03009421 -0.047445085 0.19071089
000310 40 16 f5 bc ef 95 d2 bd de 06 e9 bc 1c 9e 23 be
       -0.029917836 -0.10282504 -0.028445657 -0.15978283
000320 2a 80 91 3c a9 cd 27 3e 6a 6e ce bc 20 eb e4 3d
       0.017761309 0.16387047 -0.025199134 0.11177659
000330 70 8e 28 3d 9e 9d 09 3e cf 0d b1 3d 0d 5f d4 bd
       0.041151464 0.13439032 0.08645212 -0.10369692
000340 2f b8 00 3d 55 0e ea 3d b1 69 9b bd d7 a3 0e bb
       0.03142565 0.11428515 -0.075885184 -0.0021765137
000350 d3 b6 33 3d 11 69 c5 bd dd 45 75 3d 7e 8e 69 3d
       0.043875527 -0.096391805 0.05988108 0.057020657
000360 09 de 96 bb 65 3f d3 3d cb 67 05 bd cd b3 9a 3c
       -0.0046041054 0.10314826 -0.032569688 0.018884564
000370 4c a2 9d bc 59 4e 4a 3d d4 78 9d 3d cf 4f f9 3d
       -0.019242428 0.049391124 0.07689062 0.121734254
000380 68 bf 57 be 84 d8 f1 3d 37 c4 00 3e e7 ff ff bd
       -0.2106911 0.11808875 0.1257485 -0.124999814
000390 e8 fb 1a bd ba 25 04 be 55 9d f4 bd 73 58 2e 3e
       -0.037837893 -0.12905017 -0.11944071 0.17025928
0003a0 61 50 4a bd 13 f8 44 3c 6d c9 fc bd ab 60 5f 3d
       -0.04939306 0.012022036 -0.123431064 0.05453555
0003b0 11 f6 0e 3e d6 47 36 bd 9e 6c e5 3d e1 b6 9a 3d
       0.13961054 -0.0445021 0.11202358 0.07554413
0003c0 4c bb 45 3d 9a 3e cf 3c 65 23 44 3e fb c3 4e bd
       0.048274323 0.025298405 0.19154127 -0.05047987
0003d0 ac 5b 78 be 8b 6a 38 3c 69 29 26 be 11 c9 58 3d
       -0.2425372 0.011255871 -0.16226734 0.052926127
0003e0 e3 65 8b 3d e5 39 55 3e 74 81 1d 3e 0a fe 14 3c
       0.06806543 0.20822866 0.15381414 0.009093771
0003f0 6c c5 d9 3b 38 02 d6 3d 10 20 05 3d 2f d1 86 3b
       0.006645849 0.10449642 0.03250128 0.004114292

fc.0.weight f4 [32, 64]
000000 cf 41 32 3d fe e2 1e 3e c0 01 39 bd b0 84 9a 3d
       0.04351979 0.15516278 -0.045167685 0.075448394
000010 0b c3 d5 bd 52 47 d5 3b a4 2f bd 3d 95 94 b7 3d
       -0.10437592 0.006508746 0.09237602 0.08963887
000020 95 54 ed 3b eb 97 ae 3d 03 af bf 3d f4 2b b2 3d
       0.007242749 0.0852507 0.09359553 0.0869979
000030 0d 99 2d 3d 9b 4a 4b 3e ee 31 02 3e 75 78 eb 3d
       0.04238229 0.19852678 0.12714359 0.11497585
000040 b3 71 67 3d 64 ee 3f be 32 50 e3 bc e8 a4 b6 bc
       0.056504916 -0.18743283 -0.027748201 -0.02229543
000050 4e 54 1b bd 0a e9 ec bc 34 4a 86 bd fa 1b 25 3d
       -0.037922196 -0.028919715 -0.06557122 0.040309884
000060 01 96 50 be 11 52 a9 3d e9 c1 c3 3d 36 39 e0 3b
       -0.20369722 0.08267606 0.0955847 0.0068427576
000070 4b f4 93 bb 0f 12 24 3e b3 c3 0f 3d 44 de 2e 3e
       -0.004515206 0.16022514 0.035098743 0.17076975
000080 a7 26 cc bd 04 50 c6 bd 69 18 c5 bd cb 1b db bd
       -0.0996831 -0.096832305 -0.096237965 -0.106986605
000090 8f 00 8d 3d 73 6b 26 be ea 58 a5 3c bd e1 f1 3b
       0.06884872 -0.16251926 0.020184 0.0073816464
0000a0 5a cb 48 bd 99 af c1 3d c0 0c 38 be 7e b5 cd bd
       -0.049022056 0.09457321 -0.17973614 -0.100443825
0000b0 28 b1 14 3e e4 f7 28 bd ca c6 23 bd 50 37 25 bd
       0.14520705 -0.041252032 -0.039984502 -0.040335953
0000c0 e4 ff 2c 3e 06 ee 09 3d c4 5e b5 3d d8 49 cf bd
       0.1689449 0.033674262 0.08855966 -0.101215065
0000d0 d0 25 16 3d 15 a9 86 39 58 1e bd bd b4 d2 30 bb
       0.036657155 0.00025684448 -0.09234303 -0.0026981058
0000e0 58 11 76 3d e2 90 79 bd 65 0d 99 3d 0f 10 90 bd
       0.060075134 -0.060929187 0.07473258 -0.07034313
0000f0 1a 6a 84 bd ea 50 d0 3b 67 4c ce 3d c2 f0 62 3c
       -0.0646555 0.006357302 0.10073166 0.013851346
000100 77 84 7c bd bf 30 9f 3e d6 85 86 bd e6 49 ef 3a
       -0.061649766 0.31091878 -0.06568496 0.0018256276
000110 23 35 e6 bc 8c a4 95 3d 0e aa 14 3d a7 b2 24 3c
       -0.02810151 0.073067755 0.03629499 0.01005236
000120 b9 73 aa 3d 48 a7 8f bc ec ea bc 39 c5 ad 85 bd
       0.083228536 -0.01753582 0.00036033185 -0.065272845
000130 58 e0 90 3d b0 d0 93 3d d8 ce e3 3d c2 74 fc 3c
       0.0707404 0.07217538 0.11123437 0.030817393
000140 18 55 f9 3d 95 a4 ab be 0e 8d 24 be a5 36 72 bd
       0.121744335 -0.33524004 -0.16069433 -0.059134144
000150 ce 75 d8 3d 48 fe dc 3c 8d a4 a1 bd c6 a7 0d be
       0.105693445 0.02697672 -0.07892714 -0.13833532
000160 a9 f2 fd bd c9 4d 8f 3c 36 49 fa 3d cc a9 b8 bd
       -0.123997994 0.017493146 0.12220995 -0.09016761
000170 fe 61 7f 3d 36 62 35 3e 40 14 0b 3d c0 f5 8e 3e
       0.062349312 0.17713246 0.03395486 0.27921867
000180 7f 04 8e bd 93 0e fa 3c 72 09 19 be d2 9d 9f 3a
       -0.06934451 0.030524528 -0.1494501 0.0012177771
000190 25 b8 dc 3d b9 5f ef bd 18 3a 9d bd 33 ff 80 bd
       0.1077731 -0.116881795 -0.07677096 -0.062986754
0001a0 18 f0 a8 bd 33 cb a6 3d fe 35 47 be 25 7d 45 bd
       -0.08248919 0.08144226 -0.1945419 -0.04821505
0001b0 a6 26 36 3c 1b fc f5 bc 7f 42 ea bd 65 7b e0 3d
       0.011117613 -0.03002744 -0.114384644 0.10961036
0001c0 92 00 32 3e 05 8f 72 bd 2a 00 c5 bc c8 fa fc bd
       0.1738303 -0.059218425 -0.02404793 -0.1235252
0001d0 5e 70 b8 bc c0 69 70 bd 22 4c bf 3d cb 16 85 bd
       -0.022514518 -0.0586946 0.09340693 -0.06498488
0001e0 5c 1c 47 bd fb 90 03 be 32 52 7b 3e 4e 71 87 bd
       -0.04861103 -0.12848274 0.24543074 -0.06613408
0001f0 da c9 de 3c dd 9b b2 3d 06 b7 21 3c fc 00 b2 3a
       0.02719586 0.08721135 0.009870296 0.0013580616
000200 2c 21 17 be fc fd 6a 3d f2 19 80 bd 52 81 80 be
       -0.14758748 0.057371125 -0.06254949 -0.25098664
000210 4f 67 17 be 6b 77 c4 bd d2 70 c8 3d da 97 96 3d
       -0.14785503 -0.0959309 0.09787144 0.07353182
000220 35 44 27 be f9 84 1e bd 28 63 6f 3c f5 6d fc bd
       -0.16334613 -0.03870103 0.014611043 -0.1232566
000230 b3 4e 22 3c f1 b5 6d bd 44 98 58 3e b7 8f 56 3c
       0.009906459 -0.05803484 0.21151835 0.013095788
000240 7f ad c7 bc ff a7 a2 bd 4f 4f 4c 3e 84 1b 53 3c
       -0.024374722 -0.07942199 0.19952129 0.012884978
000250 3b 71 ea 3c 77 5b 1b 3d 27 9d e8 bd 27 8b f6 bd
       0.028618446 0.037929025 -0.113580994 -0.1203826
000260 1c be 9a 3e b5 e6 65 3a ba 12 d0 3d bd a9 a0 bc
       0.30223167 0.0008770035 0.10159822 -0.019612188
000270 57 a9 6a 3d 72 52 ad bd 2f e4 2a bc 17 43 0a be
       0.0572904 -0.08462991 -0.01043038 -0.13502155
000280 3e 81 bc 3d ae 62 26 be 67 40 f4 bc b0 47 16 3e
       0.092043385 -0.16248581 -0.029815866 0.14675784
000290 ac a1 92 3d ba 32 da 3d a5 9b 38 3d 84 93 4d 3d
       0.07159743 0.106542066 0.04507031 0.05018951
0002a0 b8 3c eb 3d ab 45 cd bd 16 18 79 3e 5e 88 c7 3c
       0.114861906 -0.10023054 0.24325594 0.024357017
0002b0 1d 87 85 3c d2 09 d4 3d a5 b2 06 3e 07 7e 21 be
       0.016299779 0.103534356 0.13154085 -0.15770732
0002c0 4a 24 11 bc 99 bc e1 bd b2 5e e2 bd 55 a3 b2 bd
       -0.00885875 -0.110223 -0.11053218 -0.08722559
0002d0 82 85 63 3d 91 ae 51 bd f2 4d 98 3d fc e0 f6 3d
       0.055547245 -0.05119187 0.07436742 0.12054631
0002e0 c2 7d 88 3c 24 30 01 bd 0b dc 00 be 7c 24 4d 3d
       0.016661528 -0.03154005 -0.1258394 0.050083622
0002f0 91 4e 71 3c f9 aa cb bd 4c de 3a 3a ce 63 77 bd
       0.014728204 -0.0994472 0.0007128462 -0.060397916
000300 b6 40 a1 3d 24 49 ad 3e 59 82 a3 3d 13 90 40 3e
       0.07873671 0.33844864 0.07983846 0.1880496
000310 12 cf 93 3c 29 f0 88 3d 6d c4 bc 3d 41 03 d6 3c
       0.018043075 0.06686432 0.09217153 0.026124598
000320 e9 a0 57 3d ce 84 25 be 55 40 e1 bd ed db 4a bd
       0.05264369 -0.16163942 -0.109985985 -0.049526144
000330 69 86 a7 3d 9e 09 45 3d 27 96 0f bd ab c2 c8 3b
       0.081799336 0.048104875 -0.035055306 0.006126722
000340 f8 52 3c 3e 50 6e ad bd f0 1a 9d bd cd fd dc 3c
       0.18391025 -0.08468306 -0.076711535 0.02697649
000350 3e fa 1d 3e 7c 51 b6 bd a6 e6 70 3c 32 6c 8d bd
       0.15427491 -0.08902261 0.014703428 -0.06905402
000360 07 68 7b be 15 42 b4 3d dd 9d 53 3d dc 3c b5 3d
       -0.24551402 0.08801667 0.051664222 0.08849499
000370 57 c2 27 bd 57 5b 55 3e b5 f7 18 bc 33 33 82 3e
       -0.04095682 0.20835625 -0.009336402 0.25429687
000380 9c 65 46 be 2e af 98 3d fc b1 c8 3d db 63 0d be
       -0.19374698 0.07455288 0.09799573 -0.13807623
000390 60 82 e4 3d d6 90 1d bd ff fc 0c be 6c 08 dd 3d
       0.111576796 -0.038468204 -0.13768385 0.10792622
0003a0 62 ec 8e 3c 66 4d 59 bd a2 d2 f9 bd 42 2f 60 bd
       0.0174467 -0.05305233 -0.12198378 -0.05473257
0003b0 af a7 6e bd d2 4d 1f 3e 9d ad 48 be 48 00 14 bd
       -0.058265384 0.1555703 -0.19597478 -0.03613308
0003c0 d9 28 b8 3d d1 ef 64 3d 8e 78 e5 3d d7 79 94 bd
       0.08992166 0.05589277 0.112046346 -0.072498016
0003d0 9a d7 de 3c 2b 32 5d bd 24 de 3a bd 7f 67 e0 3d
       0.027202416 -0.054002922 -0.045622006 0.1095724
0003e0 59 f8 47 bd 65 92 73 3d 26 2f 7c 3e 73 51 25 bd
       -0.048820827 0.059465785 0.2462736 -0.04036088
0003f0 0c a9 69 bd d4 97 7a 3d 86 9e 6c bd 03 9f f9 3d
       -0.05704598 0.06117995 -0.057768367 0.12188532

fc.0.bias f4 [32]
000000 6f fd a0 3d f4 1b ee bd 3f f5 0c 3e 19 88 9a bd
       0.078608386 -0.116264254 0.13765429 -0.0754549
000010 3a 45 28 3d 0f e5 b4 bc 3f 5e 95 3d 43 3e 78 bc
       0.041081645 -0.02208188 0.07293367 -0.015151563
000020 56 63 1d 3d be 9a 66 bd 39 cb 6f 3d b6 88 17 bd
       0.038424812 -0.056299917 0.058543418 -0.036995612
000030 ab b6 7d bd 81 14 a5 bc cf 24 88 3c 5a 39 2c bd
       -0.061941784 -0.020151379 0.016619114 -0.042046882
000040 55 5c ce bd aa 23 7e bd 61 e3 74 bd a3 da 3f 3e
       -0.10076205 -0.06204573 -0.059787158 0.18735747
000050 29 66 d3 3d a6 02 bb 3b cb 8a f7 3d e0 92 08 3e
       0.1032222 0.005707103 0.120870195 0.13337278
000060 33 41 a6 3d 5e a9 71 3d e6 87 2a bd 13 a4 a9 3d
       0.081179045 0.05899941 -0.04163351 0.08283248
000070 7b e0 b6 bd cc 29 81 3d c0 57 0e 3e d6 9e 16 3d
       -0.08929535 0.063068 0.13900661 0.03677257

fc.2.weight f4 [2, 32]
000000 1a d8 6b be e3 8a 61 be 85 a5 85 3e a5 d2 43 be
       -0.23031655 -0.22025637 0.26102844 -0.19123323
000010 ff c1 0c 3e 8e 49 12 3d 18 41 68 be c5 94 ac 3e
       0.13745879 0.03571468 -0.22681081 0.33707252
000020 07 44 68 be fb f0 b1 3e e6 0a 51 3e ae aa 88 be
       -0.226822 0.34754166 0.20414314 -0.26692718
000030 8e 14 a6 bd 85 c8 38 3d 5a f7 7b be df 15 0b bd
       -0.08109389 0.045113105 -0.24606076 -0.033956405
000040 f6 d5 02 be 4d 1a a9 3e d1 e7 22 be 02 3b a7 3e
       -0.12776932 0.33027878 -0.15908743 0.32662207
000050 70 87 91 3e c5 8d 7d 3d 03 cd 54 3e ca 45 29 3e
       0.28423643 0.06190278 0.20781331 0.16530529
000060 7f 4c 15 be ce 7d 19 3e 49 6c 08 3e b3 14 b7 be
       -0.14579962 0.14989397 0.13322558 -0.3575798
000070 44 a5 94 3d 34 8a 6c 3e 95 59 93 3e 22 57 56 be
       0.072580844 0.23099595 0.28779283 -0.20931676
000080 aa ba 26 3e 7c 1a e0 3d 75 a9 f9 bd e1 e9 6c 3d
       0.16282144 0.109425515 -0.121905245 0.05784023
000090 4f a0 9a be 4d 93 4a bc 85 21 60 3e 75 8f 3e be
       -0.3020043 -0.012364221 0.21887787 -0.18609412
0000a0 35 36 85 3e 46 40 ad be 41 56 7c be 69 dc 86 3e
       0.2601792 -0.338381 -0.24642278 0.26340035
0000b0 9c 3c a7 3d 4f 91 9b 3c 26 d1 82 3e fb 7f 78 3e
       0.08165857 0.018990187 0.25550193 0.2426757
0000c0 17 6c 9b 3e f7 63 df be b1 21 08 be 38 e9 20 be
       0.30355904 -0.43630955 -0.13294102 -0.15713966
0000d0 ad 85 fb bd 34 62 8e be 0a 78 a0 be b3 b2 5c be
       -0.12281356 -0.27809298 -0.31341583 -0.21552543
0000e0 83 e6 5e 3e ea a8 28 be 00 9a 87 be 15 b5 c1 3e
       0.2176762 -0.16470686 -0.2648468 0.37833467
0000f0 a0 37 6b 3c 9b e1 ed bd 16 a3 04 be da d0 74 3e
       0.014356524 -0.116152965 -0.12952837 0.23907796

fc.2.bias f4 [2]
000000 2a 8c 12 be f9 0c 04 3e
       -0.14311281 0.12895574
